app/src/main/ml/fallModel.tflite (tflite, 309944 bytes, 20 tensors)

dense/bias f4 [64]
000000 f7 d9 af ba 1c de 1c 3a 03 e7 ab 3a 2e ee 37 3a
       -0.0013416399 0.00059840246 0.0013115112 0.00070163875
000010 ca 2f fe b6 f0 8c c8 3b 5c 9c 0e 3c c6 3a be 3b
       -7.5753533e-06 0.0061203167 0.008704271 0.005805346
000020 fc f3 10 3c 79 ae 93 b9 4f bc 62 ba d5 f6 db b8
       0.008847233 -0.00028168017 -0.0008649276 -0.0001048871
000030 ba 0f 06 ba 31 1e a8 3a b2 51 71 3b 3e 42 51 3a
       -0.0005114038 0.001282638 0.0036822376 0.0007982588
000040 2e 8a f3 3b 5b 12 a9 38 21 96 06 3b d0 14 07 3a
       0.007432244 8.061967e-05 0.002053626 0.00051529426
000050 47 51 40 3a 0d 6e 7d b7 dd 2b d0 3b 58 cb ef b7
       0.000733633 -1.5105598e-05 0.006352885 -2.858571e-05
000060 e2 b0 83 3c 54 9a f7 3b af 54 d8 3b 0b 55 3c ba
       0.016075555 0.007556239 0.006601892 -0.0007184303
000070 44 31 c1 3a cb 46 7c 3a 41 f8 08 3b 66 9e 93 b9
       0.0014739414 0.0009623586 0.0020899924 -0.0002815604
000080 7a 95 ee 3a 73 7d 69 39 7d 72 a3 b9 2e 0b 7f ba
       0.0018202506 0.00022267345 -0.00031175083 -0.0009729144
000090 16 93 4c 3a ec f9 11 3b de f0 a7 b9 78 52 48 b9
       0.00078039 0.002227421 -0.00032032182 -0.00019104208
0000a0 64 df e1 3a 87 57 80 3b ee 8d 28 ba ef b4 86 ba
       0.0017232713 0.003916684 -0.00064298406 -0.0010277311
0000b0 77 17 fc 3b 14 7c d2 3a 99 cb 18 ba f1 55 97 3b
       0.007693227 0.0016058707 -0.0005828678 0.0046183993
0000c0 96 0f 60 3b 88 56 16 39 22 c9 3f 3a 0e eb 4a 39
       0.0034188977 0.0001433735 0.0007316043 0.00019351786
0000d0 43 98 18 3a 34 c9 06 3b c9 fa 42 b8 fd c8 2b b9
       0.00058210286 0.0020566704 -4.6486766e-05 -0.00016382705
0000e0 01 5c c9 39 a6 ce d7 3a f5 06 92 39 8e 80 15 bb
       0.00038406256 0.0016464784 0.00027852473 -0.002281222
0000f0 05 16 02 3c 5c 59 ed b9 c7 fa 7f 3b 06 7e 40 3b
       0.00793982 -0.0004527074 0.0039059387 0.002937199

conv1d_3/bias f4 [128]
000000 63 80 f0 39 61 cf e2 3a 93 54 5a bb 4d da e1 b8
       0.00045872023 0.0017304235 -0.003331457 -0.00010769498
000010 b2 c2 b3 3a cd 35 24 3b 68 20 4a 3a af 69 ba 39
       0.001371464 0.0025056482 0.00077105174 0.00035555425
000020 1c 41 81 3b a7 4e 0f bc cd e4 82 3b f4 d2 f0 ba
       0.003944529 -0.0087467795 0.0039945603 -0.0018373416
000030 f2 3f 35 3a 6a d9 70 3a 46 d1 22 bb da d1 79 ba
       0.00069141306 0.00091876707 -0.0024843975 -0.00095298665
000040 19 67 f0 b9 3d da 9e ba 65 ae fa 39 f5 6b ce b9
       -0.0004585318 -0.0012119483 0.0004781365 -0.00039371816
000050 fd 52 ae 39 45 fa 34 3b 4c 89 4c 3b 9a 00 97 ba
       0.00033249697 0.0027614993 0.0031209765 -0.0011520565
000060 91 42 90 39 1a 4e 28 39 3c 41 2d 3b 84 bc 32 bb
       0.00027515416 0.00016050824 0.0026436588 -0.0027273009
000070 cc ed 0e 3a d9 97 6c ba b7 01 1d 3b 71 d1 2b 3c
       0.00054523046 -0.00090253126 0.002395732 0.010486946
000080 6f 06 32 bb 31 4a 1f 38 02 ae a9 ba b4 9f cb 3b
       -0.002716448 3.797765e-05 -0.0012945535 0.0062141065
000090 ab b0 ef 39 c8 51 e4 b9 15 bc ce b8 f6 2b 5b 3b
       0.0004571726 -0.0004354848 -9.8578785e-05 0.003344295
0000a0 4f 08 ad ba 0a 5d 91 ba 62 0a 69 bb 64 dc db 3b
       -0.0013201329 -0.001109035 -0.0035559167 0.006709622
0000b0 77 c3 fa 38 d9 65 a0 ba 1a 79 d4 bb ef b1 ab b9
       0.00011957337 -0.0012237384 -0.006484163 -0.00032748232
0000c0 cd 61 a6 ba a3 0e 35 bb 5f b7 cc b9 f1 89 ab ba
       -0.0012693942 -0.0027627132 -0.00039046534 -0.0013087374
0000d0 38 0f 58 3b 4d d3 80 3a 9f 88 54 bb d3 a4 af 3a
       0.0032968055 0.0009828598 -0.0032430065 0.0013400562
0000e0 b6 53 8d bb 85 f0 1c 39 7b f9 83 3b f5 3a 2d 3a
       -0.0043129576 0.0001496692 0.004027543 0.00066082116
0000f0 2c 92 3b b9 07 8f 66 bb 7e 8e 16 bb 0a 5d 72 ba
       -0.00017888163 -0.0035180466 -0.0022973116 -0.0009245431
000100 fa 71 b5 39 43 89 cd 3a 58 6c f5 ba 8b ea 2d 3a
       0.0003460793 0.0015681166 -0.0018724306 0.0006634376
000110 61 d3 62 ba ab b5 fe 3a 0a 02 a2 bb 7e 92 be 38
       -0.0008652714 0.0019432803 -0.0049440907 9.087192e-05
000120 06 aa be 3a 98 61 17 3b 62 7d b4 3a 1d 05 98 3b
       0.001454652 0.0023098942 0.0013770277 0.0046392814
000130 75 44 2e bb 9e 75 a4 39 08 9e 08 ba 85 54 a9 39
       -0.0026591097 0.0003136815 -0.0005211537 0.00032297164
000140 83 67 4b bb 5c 8b 48 bb 01 7f 40 3b a7 5f 55 3b
       -0.003103704 -0.0030600643 0.0029372575 0.0032558234
000150 7c 27 18 bb 36 e8 20 3b 74 d3 0f 3c df fc e6 3a
       -0.0023216894 0.002455247 0.008778442 0.0017622969
000160 44 d3 95 39 71 ed ac ba fc a6 c3 3a c7 e5 5b bb
       0.000285769 -0.0013193322 0.0014927085 -0.0033553706
000170 dc d0 4a b9 69 c2 b8 3a 1e ca 3c 3b ca 49 50 3a
       -0.00019342027 0.0014096025 0.0028806995 0.0007945566
000180 31 8e 1a bb ca 21 cf ba 6d c4 c3 3a 62 da 02 ba
       -0.0023583288 -0.0015802917 0.0014935859 -0.0004991648
000190 2f 7e cf b9 f4 11 3c 3b 96 85 8d bb ab 3d ce 3a
       -0.0003957613 0.0028697224 -0.004318903 0.0015734931
0001a0 d9 77 74 3a b9 c2 ed 39 d0 4a 5f 3b 91 c4 56 bb
       0.000932572 0.00045349242 0.0034071691 -0.0032770971
0001b0 53 bf e7 3a f4 d6 d8 ba f5 33 41 bb ea eb 4a 39
       0.001768092 -0.0016543553 -0.0029480432 0.00019352106
0001c0 15 99 39 ba a4 d1 1b 3b 5f 41 13 bb 5b 1e 00 3b
       -0.0007080001 0.0023776079 -0.0022469384 0.0019549343
0001d0 a6 84 e7 3a f9 6e 4d 38 95 af bc 3a 5d ab 34 3b
       0.0017663434 4.897916e-05 0.0014395589 0.002756796
0001e0 7c 7e 61 3a f4 59 0f 3b ec 0c 23 3b 2a e2 0d 3b
       0.00086019165 0.0021873685 0.0024879528 0.0021649697
0001f0 3a 06 a9 3a 4a 12 3c ba 69 6c 14 bc b3 bc 44 ba
       0.0012895532 -0.0007174356 -0.00905905 -0.0007504925

conv1d_2/bias f4 [64]
000000 fe 8d 6e ba c7 62 d6 3a c8 fb ef 3a d7 98 3f bc
       -0.0009100138 0.0016356342 0.001830929 -0.011694155
000010 6d 52 15 3b 5a 2e c5 ba c9 b3 28 bb 2b d8 5b bb
       0.0022784725 -0.0015043721 -0.0025741926 -0.0033545594
000020 72 4d 93 ba 55 6c bc ba a2 96 32 ba 96 5b ff 3a
       -0.001123829 -0.0014375547 -0.0006812607 0.0019482251
000030 5e 64 a4 b9 74 eb 68 ba 89 5a 15 3b 8c ec 57 3c
       -0.00031355297 -0.0008885183 0.002278956 0.013178956
000040 a5 14 1f b9 bf f3 1e 3b 56 bc 85 3b 5d 29 6e bb
       -0.00015171112 0.002425417 0.0040812893 -0.0036340572
000050 17 c4 77 3c 6e 8d 17 b9 85 f4 04 3b 7e f3 bd 3a
       0.015122435 -0.00014453169 0.0020287347 0.0014492122
000060 d0 17 97 3b 2f 51 e3 3a ef 92 57 bb 7f 4e 0f bc
       0.004610993 0.001734292 -0.0032893976 -0.008746742
000070 95 d3 96 3a 64 31 55 3b e9 b4 b1 3a 04 2e c0 3b
       0.0011507148 0.003253066 0.0013557944 0.0058648605
000080 bd 86 1d 3a 66 e6 c3 3b 48 25 75 39 4c 8e b0 3b
       0.0006009152 0.0059783934 0.00023378909 0.005388057
000090 d0 45 fa ba 4c 97 41 3c f6 e6 b6 3a ae af 4a b5
       -0.0019094292 0.011815857 0.001395433 -7.550651e-07
0000a0 3d 9b e8 39 43 a2 5b bc 04 a3 d4 3b ef d8 d5 3b
       0.0004436615 -0.013405385 0.0064891595 0.0065261046
0000b0 e8 59 cc 3b 03 b5 8d 3b c0 8b 14 b9 ad 14 aa 3b
       0.0062363036 0.004324557 -0.00014166441 0.005190453
0000c0 23 9d 4e 3a 62 8e 36 3a 34 5a 66 bb 08 40 86 ba
       0.00078816916 0.0006963966 -0.003514898 -0.0010242471
0000d0 ee 3f 77 bb 4b 21 23 3b f6 19 86 ba b9 92 2f 3a
       -0.0037727314 0.002489167 -0.0010231126 0.00066975836
0000e0 0c 38 93 ba c3 b0 12 ba 68 2b 2d 3c 1e d5 07 3b
       -0.0011231913 -0.00055957976 0.010569431 0.0020726393
0000f0 55 41 49 bb f4 5c 01 3c 7c ab 31 3b 04 16 cd ba
       -0.0030709107 0.007895697 0.002711027 -0.001564682

conv1d_1/bias f4 [32]
000000 4a a8 9a 3b c2 b1 ad 3b 45 ad c6 3b 4c 81 ba 3b
       0.0047197687 0.0053007314 0.006063136 0.005691683
000010 3b 5f 82 3a ae 2a f6 3b cc 76 78 bb 6e 88 7d 3b
       0.0009946594 0.007512412 -0.0037912605 0.0038686055
000020 40 8d 68 3b e9 27 6f 3c 04 30 4c 3b f5 84 26 bc
       0.0035484582 0.014596918 0.003115655 -0.010163535
000030 c2 a1 81 bb 7b 01 f2 bb 08 ed b2 3b a0 49 d6 3b
       -0.0039560506 -0.0073854304 0.0054603852 0.0065395385
000040 64 46 15 3b 4a 6b 93 3c f5 2e c7 3b 27 ce cb 3b
       0.0022777552 0.017995495 0.0060785958 0.0062196436
000050 d8 aa 48 3b a0 29 4b 3c 12 14 46 3c b8 30 e8 3b
       0.003061941 0.012400061 0.012089746 0.007085886
000060 69 0c 65 3c ec d0 69 3a 9b d9 e2 ba e0 a4 59 3b
       0.01398001 0.00089193764 -0.0017307283 0.0033209845
000070 6c 48 c6 3b 7d 99 2b bb 2a 08 91 3b cd 78 1f bc
       0.006051114 -0.0026184015 0.004426022 -0.009733391

conv1d/bias f4 [16]
000000 0e 9a a8 3a 8e ae 00 bb 07 ad 2f 3a c6 21 dc 3a
       0.0012863295 -0.0019635293 0.00067015033 0.0016794733
000010 d2 04 18 3b e7 b0 87 bb 6d 30 07 3b 9a 0d 91 39
       0.0023196233 -0.0041409614 0.002062823 0.0002766669
000020 56 3b 9e b6 83 2b b3 ba e2 8d 1d 3c 24 2b ff 3a
       -4.7156745e-06 -0.0013669584 0.009616347 0.0019467813
000030 dd 6b 9f b9 32 aa b0 3a 69 48 5a bb f6 69 11 3a
       -0.00030407208 0.0013478457 -0.003330732 0.00055471004

sequential/batch_normalization_1/batchnorm/mul f4 [32]
000000 9e e4 d5 3f b9 7e 01 40 ab 9f 22 40 69 85 84 3f
       1.6710393 2.0233595 2.5409954 1.0353214
000010 37 5f ce 3f 44 2d db 3f 5a 5a c3 3f e1 1d 49 3f
       1.6122807 1.7123189 1.5261948 0.78561217
000020 bf 53 a0 3f 8e 3b e3 3f b7 6a bb 3f 74 d7 1a 40
       1.2525557 1.775255 1.4641942 2.4194002
000030 a8 20 5d 3f 18 d4 08 40 05 d4 d7 3f 74 35 8e 3f
       0.86377954 2.1379452 1.6861578 1.1110063
000040 12 d8 e9 3f 9b d9 c4 3f e2 c0 03 40 16 f9 ca 3f
       1.8269064 1.5378908 2.0586476 1.5857265
000050 56 8b 99 3f 6a 86 02 40 b6 f8 d3 3f a5 bb ba 3f
       1.1995647 2.039454 1.6560276 1.4588515
000060 58 4b da 3f c7 0c 88 3f d0 ce 91 3f 42 c7 03 40
       1.7054243 1.0628899 1.1391239 2.0590367
000070 3c fb 4c 40 85 2f 58 3f 6e f4 9f 3f 0b 08 c8 3f
       3.2028341 0.8444751 1.2496469 1.5627455

sequential/batch_normalization_1/batchnorm/sub f4 [32]
000000 15 a8 05 bf aa bc 09 bf ee 95 cb be 96 44 c4 be
       -0.522096 -0.53803504 -0.39762825 -0.38333577
000010 12 d8 05 bf df 63 c5 be d2 c5 95 be ae 0d a4 be
       -0.5228282 -0.38552758 -0.29252487 -0.32041687
000020 0e df 14 bf 9f 00 d6 be b6 97 ca be 81 fc 0f bf
       -0.58152854 -0.4179735 -0.3956887 -0.56244665
000030 db 09 c5 be f7 19 01 bf 27 a2 e9 be ca f6 d7 be
       -0.38484082 -0.50430244 -0.45631525 -0.42180473
000040 6f 1c 07 bf 9d 5e e9 be 49 96 08 bf 8e b7 53 bf
       -0.5277776 -0.45579997 -0.53354317 -0.8270196
000050 d9 3f f9 be fe 1d 37 bf 90 61 11 bf 72 f4 bb be
       -0.48681524 -0.7153014 -0.56789494 -0.36709934
000060 92 18 eb be 39 35 f9 be 23 74 b6 be 2e d0 1e bf
       -0.45917183 -0.48673418 -0.3563548 -0.62036407
000070 b8 c6 d9 be ef 1a a3 be 55 ec a2 be e4 5c b6 be
       -0.42534423 -0.31856486 -0.31820932 -0.35617745

sequential/batch_normalization_2/batchnorm/mul f4 [64]
000000 60 0d 3b 3f 41 fd 0f 40 cf 82 9b 3f 5c 26 0e 40
       0.73067284 2.2498324 1.2149295 2.2210913
000010 ab 81 cd 3f d7 a5 7c 3f ff e6 06 40 97 b2 51 3f
       1.6055197 0.9869055 2.107849 0.8191313
000020 68 6e 21 40 29 54 93 3f cb 36 22 40 55 7b 0d 40
       2.5223637 1.1510059 2.5345943 2.2106526
000030 ee bb a8 3f 48 48 8e 3f dc ec 10 40 a8 89 0f 40
       1.3182352 1.1115808 2.2644567 2.2427769
000040 a4 6a a0 3f 95 40 92 3f 44 d4 4e 40 6f 24 a9 3f
       1.2532544 1.1425959 3.2317057 1.3214244
000050 46 55 bf 3f 6e 31 0d 40 85 25 22 3f 66 41 98 3f
       1.4947898 2.206142 0.633385 1.1894958
000060 f7 42 f4 3f 00 55 ac 3f 19 61 d2 3f 2d 6b ee 3f
       1.9082936 1.346344 1.6435882 1.8626457
000070 09 6d a3 3f c8 27 74 3f 61 40 86 40 c1 f2 6b 3f
       1.276765 0.953732 4.1953588 0.9216729
000080 69 d8 a1 3f 8b 35 3d 40 95 07 0e 40 4c b1 82 3f
       1.2644168 2.956393 2.2192128 1.0210357
000090 e7 13 22 3f 6b 19 18 40 03 f9 01 40 89 10 9b 3f
       0.6331162 2.3765514 2.0308235 1.2114421
0000a0 d5 d9 04 40 87 79 04 40 84 3f 2f 40 dc 4c f2 3f
       2.0757954 2.0699174 2.7382517 1.8929706
0000b0 43 be d2 3f f6 ea 60 3f b2 6c b0 3f 23 15 0f 40
       1.6464313 0.8785852 1.3783171 2.235665
0000c0 22 2a ff 3f 25 4f 47 40 c7 23 83 3f f5 4e b1 3f
       1.9934733 3.1142056 1.0245293 1.3852221
0000d0 4c 2f 68 40 a1 4a e8 3f 2c 77 6e 3f d5 8a 92 40
       3.6278868 1.8147775 0.9315059 4.5794473
0000e0 4e 88 84 3f 75 8f 92 3f c0 c9 12 40 a1 26 b7 3f
       1.0354097 1.145003 2.2935638 1.4308664
0000f0 dc 92 44 40 6a 51 cd 3f c5 c8 98 3f d1 87 ae 3f
       3.0714636 1.6040471 1.193627 1.3635198

sequential/batch_normalization_2/batchnorm/sub f4 [64]
000000 6a 04 bd be 27 0a 03 bf 41 df a5 be 8f 12 04 bf
       -0.3691743 -0.51187366 -0.32396892 -0.5159082
000010 38 f1 02 bf b7 a0 a1 be f2 b9 ad be 9a 8d bd be
       -0.5114932 -0.31567928 -0.33930928 -0.37022096
000020 e1 e5 e6 be 76 06 ee be 0a ff 32 bf 6e 6c 26 bf
       -0.4509726 -0.46489304 -0.6992041 -0.650092
000030 05 e0 03 bf 22 36 b0 be 37 44 cd be 26 bc 2e bf
       -0.515137 -0.344163 -0.40091106 -0.6825584
000040 04 04 c4 be 30 50 c7 be 65 27 50 bf e3 90 83 be
       -0.38284314 -0.38928366 -0.8131011 -0.25696477
000050 aa 20 c2 be 5e 3d 0b bf bd 1a a6 be d2 80 c7 be
       -0.37915546 -0.54390514 -0.32442275 -0.3896547
000060 0c fa a0 be f2 0c c4 be 20 bd f9 be 41 e6 87 be
       -0.3144077 -0.38291126 -0.48777103 -0.26542857
000070 ba f8 b4 be 8c 96 b6 be fd a5 63 bf 15 bf fe be
       -0.35346013 -0.35661733 -0.88925153 -0.4975516
000080 4f fe 94 be 0b 37 51 bf 57 87 1d bf fb 9e d6 be
       -0.29100272 -0.81724614 -0.6153464 -0.41918167
000090 41 6b 98 be 82 f8 40 bf 62 1d e9 be b4 c9 03 bf
       -0.29769328 -0.7537919 -0.4553023 -0.5147965
0000a0 eb 39 15 bf 70 9c 03 bf bf ad 5f bf cd 85 26 bf
       -0.582915 -0.5141058 -0.8737449 -0.65047914
0000b0 f3 9b c8 be 0b 3f b9 be b0 f3 c2 be dd 94 de be
       -0.3918148 -0.3618091 -0.38076544 -0.4347295
0000c0 56 87 ed be c0 b9 52 bf 57 cd d2 be 67 02 93 be
       -0.46392316 -0.8231468 -0.41172287 -0.2871277
0000d0 11 69 6f bf 7b d9 13 bf 20 54 bc be 41 2b 86 bf
       -0.93519694 -0.57753724 -0.36782932 -1.048195
0000e0 61 37 ac be 0e 70 b8 be 8a 07 e7 be 71 69 f0 be
       -0.33636 -0.3602299 -0.4512294 -0.46955445
0000f0 67 da fe be 34 66 fe be 0d 41 d3 be 3c b3 d1 be
       -0.49776003 -0.4968735 -0.41260567 -0.40957057

sequential/batch_normalization_3/batchnorm/mul f4 [128]
000000 87 e5 25 40 75 db 41 40 52 dd 97 3f 13 71 f5 3f
       2.5921342 3.0290196 1.1864417 1.9175133
000010 3c 6d 18 40 46 dc c7 3f c2 67 7c 40 dd 6f b9 3f
       2.3816671 1.5614097 3.9438329 1.4487263
000020 ae f8 e5 3f 3b 35 d8 3f 57 e0 9d 3f b2 7a 0d 40
       1.7966516 1.6891245 1.2334088 2.2106137
000030 cc 65 f6 3f 60 f7 96 3f d4 02 8b 3f 5d 80 9c 40
       1.9249816 1.1794243 1.0860238 4.8906693
000040 fd dd 93 3f 0c 0b d8 3f 13 02 1c 40 e8 35 1d 3f
       1.155212 1.6878371 2.4376266 0.6141038
000050 8a 73 91 3f 7c 24 18 40 fd 51 ef 3f 2f 41 ef 3f
       1.1363385 2.3772268 1.8696896 1.8691767
000060 9e 1e d8 3f 86 31 ac 3f 9d 01 ec 3f 81 11 e6 3f
       1.6884344 1.3452613 1.8437992 1.7974092
000070 65 2d ff 3f a2 2d 9b 3f f8 ba 44 40 f2 fe 96 40
       1.9935728 1.2123301 3.0739117 4.7186213
000080 c4 7a c2 3f f0 d0 28 40 90 f7 cd 3f f7 d6 1e 40
       1.5193715 2.6377525 1.6091175 2.4818704
000090 b8 d7 72 3f 22 fe 60 3f 59 f3 9a 3f cd 2b ea 3f
       0.9486041 0.87887776 1.2105514 1.8294617
0000a0 ed 2c 73 40 9f b0 e2 3f 76 44 ed 3f 39 c5 0d 40
       3.799617 1.771015 1.8536518 2.2151625
0000b0 26 4e e2 3f 04 cf af 3f 3c a3 01 40 da 1d 59 3f
       1.7680099 1.3735051 2.025588 0.84811175
0000c0 f9 49 95 3f bb b2 34 40 e7 d7 32 3f 03 cb 6d 40
       1.16632 2.8234088 0.6986069 3.7155159
0000d0 24 c4 f2 3f 74 cb 5e 3f 9b 4d 8d 3f bd 23 16 40
       1.8966107 0.87029195 1.1039308 2.3459313
0000e0 8f 2a 13 40 d6 05 c5 3f a2 ce 0c 40 ff e4 38 3f
       2.2994726 1.5392406 2.2001119 0.7222442
0000f0 6c f0 cf 3f e4 3b 25 40 eb 23 46 3f 35 8e 42 3f
       1.6245246 2.5817804 0.77398556 0.7599824
000100 56 45 bb 3f 7a fd 8b 3f 0b c9 57 3f cf 87 99 3f
       1.4630535 1.093673 0.8429114 1.199457
000110 05 e4 e0 3f 76 5c bf 3f cc 94 04 40 d4 df 69 3f
       1.7569586 1.4950092 2.0715818 0.9135716
000120 5a 0f af 3f ac 45 a1 3f f8 a6 df 3f e6 51 df 3f
       1.367656 1.2599387 1.747283 1.7446868
000130 2b b9 20 40 e0 c6 5d 3f 34 86 54 3f 7f 27 ad 3f
       2.5113018 0.86631584 0.8301728 1.3527678
000140 cf 79 89 3f 89 af 5e 3f 95 46 98 3f 26 17 4c 3f
       1.0740298 0.86986595 1.189654 0.7972282
000150 54 08 50 40 9d 82 3a 40 47 ac 74 40 07 e1 b8 3f
       3.2505083 2.914222 3.823015 1.4443673
000160 b0 f2 cb 3f f5 42 88 3f f7 79 a8 3f 79 20 1c 40
       1.5933437 1.0645434 1.3162221 2.439482
000170 b6 70 28 40 2a 75 5f 40 8b 74 e5 3f 7a e3 b6 3f
       2.6318793 3.4915261 1.7926191 1.428817
000180 7b 3b 19 3f 4b 19 2f 40 cb b9 8f 3f 64 bb 5e 3f
       0.59856385 2.7359188 1.1228575 0.87004685
000190 29 20 ee 3f b6 b1 29 40 ef 91 91 3f 12 46 33 40
       1.8603565 2.6514716 1.137266 2.8011518
0001a0 e3 3b 9c 3f 98 8f 0a 40 2b 93 8a 3f 1c 2b d6 3f
       1.2205776 2.1650143 1.0826162 1.6731906
0001b0 2c c4 21 40 91 75 eb 3f 51 8d 12 40 be f4 ce 3f
       2.5275984 1.8395253 2.2898753 1.6168439
0001c0 6e 49 00 40 19 0a c9 3f ac ec 95 3f 78 f3 2b 40
       2.0044818 1.5706207 1.1712852 2.6867352
0001d0 c8 60 d6 3f 22 fa 8a 3f 00 9e 15 40 22 4f bf 3f
       1.6748285 1.0857584 2.3377686 1.4946024
0001e0 79 12 d5 3f 78 a4 c5 3f cf 20 07 40 d7 56 3e 40
       1.6646262 1.5440817 2.1113775 2.9740503
0001f0 9f 7e bc 3f b6 c5 dd 3f c9 f1 03 40 91 59 15 40
       1.4726142 1.7325962 2.0616324 2.3335917

sequential/batch_normalization_3/batchnorm/sub f4 [128]
000000 23 ed 4f bf 31 22 20 bf d1 be cc be 41 7b a0 be
       -0.81221217 -0.6255217 -0.3998933 -0.31344035
000010 b0 ff 3b bf 7f 79 11 bf a7 df 2b bf 11 f9 02 bf
       -0.73437023 -0.56826013 -0.6713814 -0.51161295
000020 f9 d0 0a bf 33 3c 12 bf 1a f4 1d bf 50 91 0d bf
       -0.54225117 -0.57123107 -0.61700594 -0.55299854
000030 88 fa 1b bf 94 36 e8 be 25 0a e3 be ec 3e 03 bf
       -0.60929155 -0.4535414 -0.44343677 -0.51267886
000040 a8 4f a8 be 2e 63 c2 be 84 19 31 bf 68 3c d8 be
       -0.32873273 -0.37966293 -0.6917956 -0.42233586
000050 86 9a ed be e2 4f 46 bf df 4e 02 bf c6 bc e4 be
       -0.46406955 -0.7746564 -0.509016 -0.44675273
000060 65 d7 0a bf 7a 98 a1 be ed 20 d5 be 9c 96 cd be
       -0.54234916 -0.31561643 -0.41626683 -0.40153968
000070 df ec 03 bf 28 b0 1e bf c4 10 58 bf f0 cb 2c bf
       -0.5153331 -0.61987543 -0.8440058 -0.67498684
000080 44 4b dc be 36 3d 08 bf 7f 08 18 bf d6 45 55 bf
       -0.43026173 -0.532184 -0.59387964 -0.83309686
000090 bf 05 f5 be 45 95 cc be 1f 3a 27 bf b2 f7 1a bf
       -0.47855946 -0.39957634 -0.6532306 -0.60534203
0000a0 ba 51 38 bf 97 65 1f bf 55 f8 d4 be e5 07 6a bf
       -0.71999705 -0.6226439 -0.41595712 -0.91418296
0000b0 33 a5 f6 be f4 bf 85 be b9 b6 e1 be d3 28 eb be
       -0.48172912 -0.2612301 -0.4408472 -0.45929584
0000c0 ad 5f b3 be 0d a6 3a bf 93 d3 e3 be 06 37 35 bf
       -0.35033932 -0.72909623 -0.44497356 -0.70787084
0000d0 60 d4 ea be 9e 53 98 be b6 3f f5 be 8e 08 37 bf
       -0.45865154 -0.29751295 -0.4790017 -0.7149743
0000e0 3e 7a 0b bf 77 d0 14 bf b3 b9 40 bf 5c fd ec be
       -0.544834 -0.5813059 -0.75283355 -0.46287048
0000f0 14 cf 30 bf d1 ab 18 bf e4 71 b9 be 7e 4a a6 be
       -0.69065976 -0.5963717 -0.36219704 -0.32478708
000100 50 09 00 bf 8e 87 f4 be 79 f4 b3 be d2 03 12 bf
       -0.5001421 -0.4775967 -0.35147455 -0.5703708
000110 cd d4 42 bf fc cd 20 bf b3 34 46 bf 52 9d fe be
       -0.7610596 -0.6281431 -0.7742416 -0.497294
000120 d0 71 c5 be 31 a5 31 bf 5c 42 11 bf de 6e 2e bf
       -0.38563395 -0.6939269 -0.5674188 -0.6813792
000130 db 64 17 bf 9f e3 d9 be 94 33 ce be 60 d9 d1 be
       -0.5913827 -0.42556474 -0.40273726 -0.40986156
000140 bb 63 c5 be 5f 0a b0 be 8c 4b c0 be d4 dc 04 bf
       -0.3855265 -0.34382913 -0.37557638 -0.51899457
000150 fe 63 35 bf 93 c1 42 bf 1b 9f 0b bf aa 90 01 bf
       -0.708557 -0.7607662 -0.5453965 -0.50611365
000160 fc 0b b8 be 8a 70 f2 be 34 b5 11 bf a0 59 18 bf
       -0.35946643 -0.47351485 -0.5691712 -0.59511757
000170 b3 9c b2 be 80 d8 3b bf 99 25 ee be c1 f4 e3 be
       -0.34885177 -0.7337723 -0.4651306 -0.4452267
000180 ef b9 e3 be 85 17 17 bf cb 21 f6 be b1 aa b4 be
       -0.44477794 -0.5902026 -0.48072657 -0.35286477
000190 2e 48 b2 be 6b f7 45 bf 89 10 c0 be ee 8f 3f bf
       -0.34820694 -0.77330655 -0.37512615 -0.74828994
0001a0 d5 c8 b9 be 7d 37 62 bf 45 e7 d4 be e9 29 db be
       -0.36286035 -0.8836592 -0.41582695 -0.42805412
0001b0 b8 f5 2c bf 9d 93 cc be 4f e4 2e bf cd f2 11 bf
       -0.6756244 -0.3995637 -0.6831712 -0.5701111
0001c0 02 00 0f bf 70 8e f2 be 76 21 f9 be 30 78 1b bf
       -0.55859387 -0.47374296 -0.4865834 -0.60730267
0001d0 ed 3e 16 bf 9f 90 e4 be 17 69 d5 be 26 dd e8 be
       -0.5868977 -0.44641587 -0.4168174 -0.45481223
0001e0 43 f6 26 bf f8 d9 cd be 3f 67 6d bf 5e 39 3e bf
       -0.65219516 -0.4020536 -0.92735666 -0.74306285
0001f0 0a 16 05 bf a9 10 b5 be 2c 61 f8 be 2c e9 14 bf
       -0.51986754 -0.35364273 -0.48511636 -0.5816829

sequential/batch_normalization/batchnorm/mul f4 [16]
000000 2d e7 2f 3f 8f 14 9a 3e 41 1f ba 3e 77 75 8e 3e
       0.6871212 0.3009381 0.3635197 0.27823994
000010 2b 8a 5d 3f 88 01 94 3e 18 59 3f 3f 8e a1 ef 3e
       0.8653895 0.28907418 0.7474532 0.46802944
000020 1c 25 a0 3e 53 67 b0 3e c3 dd 31 3f 67 c3 64 3e
       0.31278312 0.3445383 0.69479007 0.22340165
000030 d9 06 8b 3e 0c 3e 02 3f e8 62 54 3f 19 64 a8 3e
       0.27153662 0.50875926 0.8296342 0.32888868

sequential/batch_normalization/batchnorm/sub f4 [16]
000000 c4 91 ad be 0a 9e 4e bf 40 7a cb be 74 ce 51 bf
       -0.33900273 -0.807099 -0.39741707 -0.8195565
000010 74 3c 9f be 6e 92 e8 be 62 60 9b be 8f ab c5 be
       -0.3110081 -0.45424217 -0.30346972 -0.3860745
000020 66 4c 56 bf f5 91 8e bf 09 c2 4b bf a3 27 5b bf
       -0.83710325 -1.1138293 -0.7959295 -0.85607356
000030 d1 74 cc be 8e 87 c1 be 0b 28 9b be 90 52 8c bf
       -0.39932874 -0.37798733 -0.30303988 -1.0962696

sequential/dense/MatMul f4 [64, 640]
000000 20 a5 46 3d 62 d8 0e bd 01 bb d5 bb c2 79 20 bc
       0.04849732 -0.034874327 -0.0065225367 -0.009794654
000010 a9 3a 5c bd 6b 7b 3d bc e4 9b 6b 3d 03 26 ad bc
       -0.05376688 -0.01156507 0.057521716 -0.02113629
000020 2a 56 2a 3d c9 b8 97 bc fe 5a 89 bd 83 1e 9a bd
       0.04158608 -0.01852073 -0.067068085 -0.07525351
000030 97 ca b6 3d d5 e9 b5 3c 3c 15 da 3a f2 63 9f bd
       0.0892536 0.022206226 0.0016638408 -0.07782735
000040 23 6b 9b bc 81 19 a8 bd 5f 82 94 3d 86 af ba bc
       -0.018971985 -0.082079895 0.07251429 -0.022788774
000050 3d c3 30 bd c5 d9 65 3d 1d 91 b4 3d 59 58 1f 3c
       -0.043154944 0.056115884 0.08816741 0.009725654
000060 ff c9 4e 3c 45 b0 51 3c d8 5f 43 3c 5d 31 b6 bd
       0.012621402 0.012798374 0.011924706 -0.08896134
000070 61 56 a7 3d 4d f1 15 bd 58 fc a0 bd fb 2f 00 3d
       0.08170772 -0.036607075 -0.07860631 0.031295758
000080 be 61 45 bd 5f 2e a4 bc a0 c9 96 3d db 29 89 3d
       -0.048188917 -0.020041643 0.07362676 0.066974364
000090 00 a8 a1 bd 82 18 74 bd 6d cc 6e 37 77 e7 b0 3d
       -0.078933716 -0.059593685 1.4233502e-05 0.086378984
0000a0 bc 23 4a 3d 7a 5b ab bc 61 f2 8f 3d b9 8f a8 bd
       0.049350485 -0.020917643 0.07028652 -0.08230538
0000b0 2e 35 05 3d e9 75 b7 bd 2b 32 f5 bc d1 db 2e bd
       0.03252142 -0.089580365 -0.029931149 -0.042690102
0000c0 d7 54 84 3d c0 09 1f 3b 0d 2b ad bd f8 bc bd 3c
       0.064614944 0.0024267286 -0.08455477 0.023161396
0000d0 c6 7f c3 bb cc 50 68 3c 63 8d 48 3c 46 d5 8d 3d
       -0.0059661595 0.01417942 0.0122407405 0.06925444
0000e0 ff e1 84 3d 1c fc 67 bd bf 18 d8 bc 37 a6 aa 3d
       0.06488418 -0.056636915 -0.026378987 0.08332484
0000f0 3c 5b f3 3c 7b 6e 33 3d 14 28 82 bd 92 dc 9e 3c
       0.02970659 0.043806534 -0.063553005 0.019392285
000100 4a be 95 ba aa 20 47 bd d6 63 3b bd e1 57 63 bd
       -0.0011424508 -0.048615135 -0.045749508 -0.05550373
000110 e3 4b 29 3d 54 de 54 3d 7e bf 38 3c e1 f3 1d 3d
       0.041332137 0.05196984 0.011276124 0.03856266
000120 8d ba 58 bd 53 eb 90 3c fb cd a0 bd 0f be 10 3d
       -0.052912284 0.017690336 -0.07851788 0.035337504
000130 e2 8d b1 bd 8f c8 34 bd 85 d3 87 3d 1a dd 87 bc
       -0.0866964 -0.04413658 0.06632141 -0.016584922
000140 ab 21 4e bd 9f e0 ab bd 64 f2 95 3c 56 a2 91 3c
       -0.050325077 -0.083924524 0.018304057 0.017777603
000150 a7 1d 04 bd c9 2a 9f 3d 81 58 88 3d 41 b7 73 3d
       -0.03225484 0.077718325 0.06657506 0.059500936
000160 6d f2 85 bc 18 1d 22 3d 11 6e de bc d2 f4 67 bd
       -0.01635095 0.039578527 -0.027152093 -0.056629963
000170 f5 ee a4 3d 95 75 7a bd 27 45 90 3d 8c 63 21 3d
       0.0805339 -0.06114729 0.0704444 0.039401576
000180 e2 ab b2 3d 1f dd 01 bd 47 ab ef bb cc 87 10 bd
       0.0872419 -0.031705018 -0.007314119 -0.035285756
000190 b2 f3 85 3d 79 4f 54 3d 78 1e 3c 3d bd d1 9c 3b
       0.06540622 0.051833604 0.045927495 0.004785745
0001a0 61 0f 32 3d 8f d4 28 bd 58 38 23 bd ac f1 7b bd
       0.043471698 -0.041218337 -0.039848655 -0.061509773
0001b0 43 ad a2 3d c4 b3 3d 3d 08 8c 33 bd c3 5e c1 3c
       0.07943203 0.046314016 -0.043834716 0.023604756
0001c0 9a 1c 6f bd 4a a6 fa 3b cc 5c 11 3d 1d 51 6f bc
       -0.058376886 0.0076492177 0.03548889 -0.014606741
0001d0 ad bd a1 bd cc b1 b3 3d e5 e6 bc 3c 67 ec 59 3c
       -0.07897506 0.087741464 0.023059318 0.013300992
0001e0 75 2e 94 bd 62 1f 84 bd 1b 9f 29 3b bd d2 8b 3c
       -0.072354235 -0.06451298 0.0025882188 0.017068261
0001f0 bc d6 06 bb d1 8e b3 3b 8f ea a2 3c 05 55 25 bd
       -0.002057477 0.0054796715 0.019887237 -0.040364284
000200 84 f6 a9 3c 51 16 57 3d 46 45 95 3b 1a 74 89 3d
       0.02074743 0.052511517 0.004555377 0.06711598
000210 f4 cc f2 bc 7d 36 81 3b 87 2d 2b 3c db 7d b5 3c
       -0.029638745 0.003943263 0.010447866 0.02215474
000220 ca 9a 5f ba 22 c4 90 3d f0 50 9f bd 9a 30 73 3d
       -0.000852984 0.07068659 -0.077791095 0.059372522
000230 6a 18 ac 3c b9 4e 4c 3c d3 78 0a 3d 03 86 9d 3c
       0.021007735 0.012469941 0.033806633 0.01922894
000240 44 1d db bc e2 01 93 3d 2f e3 8d bd a7 0c 34 3d
       -0.026747353 0.071780935 -0.069280975 0.04395738
000250 45 c3 52 3c 98 2c 33 bc 70 33 ea bb e9 d4 68 3d
       0.012863939 -0.010935925 -0.007147245 0.056843672
000260 d4 e4 9a bd 09 80 a4 bd 65 c8 99 3d ae 9b 56 bd
       -0.07563177 -0.08032233 0.07508925 -0.05239456
000270 6e 5c a1 3c 9e bf e8 bc 30 7e 50 3d 3a 61 56 3d
       0.019697394 -0.028411683 0.05090159 0.052338816
000280 0a bd 52 3d e0 bb 4a bd cc 1c 82 bd b7 fb 60 bd
       0.051449813 -0.049495578 -0.06353149 -0.054927554
000290 c5 07 62 bd fb 8c 4a 3d d5 a6 59 3d 41 2a 07 bd
       -0.05518319 0.049450856 0.05313762 -0.03299928
0002a0 5f ad 01 bd 46 c9 96 bd fd 7c 45 bc 14 0a 7a bc
       -0.03165948 -0.073626086 -0.012053725 -0.015261192
0002b0 b1 fd 4b bd fd c4 0d 3b af dd 0c 3c ba 78 28 bd
       -0.049802486 0.0021632307 0.008597775 -0.04113076
0002c0 70 00 e1 bc 86 84 fd 3b bd 40 c8 3c 30 49 19 3c
       -0.027466029 0.0077367453 0.024444932 0.009355828
0002d0 fb 23 66 bd 91 22 a8 bd 01 3e 76 3d 0a 44 72 bd
       -0.056186657 -0.08209718 0.060117725 -0.05914692
0002e0 6d ea a9 3d a8 e9 8a 3d ae c9 f4 bc dd c7 9f 3d
       0.08296666 0.06782848 -0.029881325 0.07801793
0002f0 2d b9 aa 3d d7 9b 19 3d 9d c5 28 bd 34 35 92 bc
       0.08336101 0.037502136 -0.041204084 -0.017847635
000300 0c 07 20 bd b9 d8 f0 3c 55 df bd 3c 7b 48 bf bc
       -0.03906922 0.029400216 0.023177782 -0.023349991
000310 17 b1 b3 bd c0 58 cd 3c c6 f7 93 3c e1 5e 17 3d
       -0.087740116 0.025066733 0.018062484 0.036955718
000320 bb 66 a4 bd 80 9b ab 3d e5 96 38 bc a2 5b 97 3d
       -0.08027407 0.08379269 -0.011266445 0.073905244
000330 26 eb 53 3d 7b 65 da 3c d9 d1 2f bd e6 51 ec 3c
       0.051737927 0.026659718 -0.042924736 0.028847646
000340 78 e4 9c 3d 1e 74 3c 3d 13 0f a1 3c 5b d0 86 3d
       0.076607645 0.046009175 0.019660508 0.065827094
000350 c2 da 15 bd 96 84 71 bd 78 8a b4 3c f4 3e 4e 3d
       -0.036585577 -0.058964334 0.022038683 0.050353006
000360 bf 98 a0 bd 89 cd 3f 3d eb 45 a1 bd 71 10 79 3d
       -0.07841634 0.046826873 -0.07874664 0.060806695
000370 f0 97 24 bd 37 b2 94 bd 52 20 95 bd 63 83 48 bd
       -0.04018396 -0.07260554 -0.07281555 -0.048953425
000380 9f 11 2f 3c 0c ab 0f 3d d3 55 3a bd 71 83 81 bd
       0.010685354 0.035075232 -0.045492005 -0.063238986
000390 7b 4d 45 3d 98 15 55 bd 14 59 18 3d c2 f7 81 bd
       0.048169594 -0.052022547 0.037194327 -0.06346084
0003a0 d0 2b e8 bb d6 f8 b5 bd e7 6e ac bd 63 83 90 3d
       -0.007085301 -0.08885352 -0.084195904 0.0705631
0003b0 53 46 0d bd f6 39 3c bd 30 e0 2d 3d c7 e3 0f 3d
       -0.034490895 -0.045953713 0.04245013 0.035129335
0003c0 12 1e a7 3d e4 69 68 3d 82 7a e0 3c f8 55 66 3d
       0.08160032 0.05674161 0.027402166 0.05623433
0003d0 44 68 a9 bc df 38 6d bd d1 5a 57 3c 5c 46 88 bd
       -0.0206796 -0.057915565 0.013144211 -0.06654045
0003e0 59 c0 30 3d 7c f2 b2 bd 3d 05 9f 3d c3 32 0c 3d
       0.043152187 -0.087376565 0.07764671 0.034228098
0003f0 8e de b3 3d 66 8a 9b bd 8d 60 be 3b 11 24 a1 bd
       0.08782683 -0.07594757 0.0058098496 -0.07868207

sequential/conv1d/Conv1D f4 [16, 1, 3, 3]
000000 80 21 7a 3e 16 d6 0c 3d 21 c9 28 3e a7 66 63 be
       0.24426842 0.034383856 0.16482975 -0.22207128
000010 0e fc 47 3e fa 1e 8e 3e 1d 32 33 3e cc e5 3a 3e
       0.19529745 0.27758008 0.17499585 0.18251723
000020 33 df 64 be ab d3 3f 3e 1d 4a d6 bd ad bd 62 3c
       -0.22350769 0.18733089 -0.10463355 0.013839168
000030 29 8c 60 3e 71 f4 17 be a0 85 97 3e 19 03 76 3e
       0.21928467 -0.14839341 0.29594135 0.24024619
000040 10 52 1e be cc a7 9c 3b d1 e7 51 3e aa 93 b7 bc
       -0.15460992 0.004780745 0.20498587 -0.022409279
000050 3d e8 a4 3e a5 f6 18 be b1 40 a0 3e 91 8f 80 3e
       0.32208434 -0.14937837 0.31299356 0.25109532
000060 3e 70 65 3d 3f b3 37 3e 5c a8 83 3e d0 ef 76 3e
       0.056015246 0.1793947 0.25714386 0.24114919
000070 b9 77 06 be 5c d9 83 be 93 11 0f be 6f 1e 24 be
       -0.13131608 -0.2575177 -0.13971548 -0.16027234
000080 4c 95 79 be bd 24 a9 be b1 f9 4e 3e 91 53 82 be
       -0.24373358 -0.33035842 0.20212437 -0.2545438
000090 69 f9 61 bc bd ef 60 3e a6 f4 45 3e 32 79 c6 3d
       -0.013792374 0.21966453 0.19331607 0.09691085
0000a0 8e a9 48 bd 8e 64 91 be 47 10 44 3d 27 5a 63 3e
       -0.048989825 -0.2839703 0.047867086 0.22202359
0000b0 08 2d fb 3d 87 10 a1 be f9 8c 71 bd 5a af ff 3c
       0.122644484 -0.31457922 -0.058972333 0.031211544
0000c0 bf 66 67 be 8e 04 57 bd 64 26 1d 3e 72 92 93 be
       -0.22597788 -0.052494578 0.15346676 -0.28822666
0000d0 79 51 8e 3d 8a 99 a5 3d b2 5c 03 bd 9a 70 92 3e
       0.069491334 0.08085926 -0.032070823 0.28601533
0000e0 0c c0 89 3d 65 31 94 3e 05 52 00 3e 12 55 ef bd
       0.06726083 0.28943935 0.12531288 -0.11686148
0000f0 7f c0 1e 3c 32 98 e8 bd 54 24 53 3e c0 1d 8c 3e
       0.009689449 -0.11357154 0.20619327 0.27366447
000100 0c 71 85 3e 70 64 0c 3e 2b a2 a1 be 14 3f f3 3d
       0.2606281 0.13710189 -0.31569037 0.118772656
000110 ab 27 1f 3e 3f 63 b2 be 0f 2f a5 bd 3e 3c 82 3d
       0.15542476 -0.34841344 -0.08065616 0.063591465
000120 74 2f b6 bd a3 04 14 be a4 84 6e be 77 e7 ee bd
       -0.0889577 -0.14454894 -0.23292786 -0.11665242
000130 0c 6f 84 bc d5 a0 48 be 0e cd 83 be 25 6d 02 3d
       -0.016166233 -0.19592603 -0.25742382 0.03184237
000140 13 24 0d be 9f aa f3 bc 56 7d c0 bd c6 25 59 be
       -0.13783292 -0.029744444 -0.09398906 -0.21205816
000150 5d ea 53 3e 82 d3 42 bd 16 25 32 be 46 8c d0 bd
       0.20694871 -0.04756499 -0.1739696 -0.10183005
000160 a0 26 95 be 02 00 14 3d ea 44 3b be 94 7d 52 be
       -0.2913103 0.03613282 -0.18288007 -0.20555717
000170 e7 f0 fe bd 68 1b a4 3d fc cb 88 3e cd 3e ab bd
       -0.12448292 0.0801304 0.26718128 -0.08361588
000180 64 be 5a 3e 67 24 fa bd 6e da 9b bd ae 0a 57 be
       0.21361691 -0.122139744 -0.076100215 -0.21000168
000190 3c b8 46 be fa a2 51 3e ea b2 91 be 19 2d 7c be
       -0.19406217 0.20472327 -0.28456813 -0.24626578
0001a0 41 2d 2c 3e be f7 62 3e 6c ef 81 be ab 1b 82 3e
       0.16814138 0.22164819 -0.25377977 0.25411734
0001b0 2f 2f 1f 3c 89 f9 a7 3e 15 a0 61 be 8d 8d f5 bd
       0.009715839 0.32807568 -0.22033723 -0.11989889
0001c0 0f 08 39 3e 05 ac 2e be 6d 80 1c be 9a a1 c8 3d
       0.1806948 -0.17057808 -0.15283366 0.09796448
0001d0 3e d8 8a be f4 41 f4 3d 05 5c 9c 3e fe b1 8d 3d
       -0.27118105 0.11926642 0.30538955 0.06918715
0001e0 a1 bc de 3d 95 94 4d 3d 68 1b 6d 3e 23 16 f6 3d
       0.10875822 0.050190527 0.23154986 0.12015941
0001f0 e2 89 c1 bd 88 df 1b 3e 3d 4a ef bd 72 f9 91 3e
       -0.09450127 0.15221989 -0.11684082 0.28510624
000200 16 21 24 bc c8 8f 8f bd 93 13 c9 bd 6a e5 88 be
       -0.010017654 -0.07009846 -0.098181866 -0.2673753
000210 fa ed 4d 3e 05 12 ff 3d 98 f6 1f 3e 1b ad 96 3d
       0.20110312 0.12454609 0.15621412 0.07357236
000220 31 6d 0d 3e 49 43 a0 be 5f 13 33 be 00 fa 90 be
       0.13811184 -0.31301335 -0.17487858 -0.28315735
000230 0f dc b5 3d a3 36 a7 bd 02 46 80 be 0a 74 4b be
       0.088798635 -0.08164718 -0.25053412 -0.19868484

sequential/conv1d_1/Conv1D f4 [32, 1, 3, 16]
000000 1c 8e b9 3d 26 e4 3d bd ac fc 1e bd 89 5b 09 be
       0.09060308 -0.046360157 -0.038815185 -0.13413824
000010 09 b6 38 be c1 c8 1c be e0 53 22 be c4 4d 9e bd
       -0.18038191 -0.15310957 -0.15852308 -0.07729676
000020 ce 46 30 3e 9a 10 cd 3c 8f c4 3d 3e b5 41 1a be
       0.1721451 0.02503233 0.18532012 -0.15064128
000030 20 ad e2 bd 51 ad 49 bd 8c 2a 06 be 9a a4 a7 bc
       -0.11068177 -0.049237553 -0.13102168 -0.02046423
000040 86 01 0c 3e ba 6d 1f be 71 9b 6d bd 3c 60 21 be
       0.13672456 -0.15569201 -0.05800957 -0.15759367
000050 48 98 3f bd 7b b1 00 be 2f 75 07 3e 82 2b c6 3d
       -0.046776086 -0.12567703 0.13228296 0.09676267
000060 69 b8 40 3e df 89 e5 3d ea 3b 8a bd 0c b4 03 3e
       0.18820347 0.112079374 -0.06749709 0.12861651
000070 e7 7e 76 bd 05 c0 4c be 27 58 93 bd e2 65 d4 3d
       -0.060179617 -0.19995125 -0.07194548 0.10370995
000080 25 4f bf bc 80 2a 8c bd 9c b7 48 3e d8 ce 39 3e
       -0.023353169 -0.06844044 0.19601291 0.18145311
000090 ab 05 3c 3c 37 2c 4e 3e ad 11 8a 3d 0a e9 bd 3d
       0.011475961 0.20134054 0.06741653 0.09272964
0000a0 b0 09 82 3d 1e 5a 88 bb 90 71 99 3b 81 a2 cf bd
       0.06349504 -0.0041611334 0.004682727 -0.10138417
0000b0 65 7d 50 3e 75 03 41 3e d0 54 d2 bd 0e 61 47 3e
       0.20360334 0.18848975 -0.10270083 0.19470617
0000c0 a2 04 29 be 36 70 48 3e 9c 66 c4 bd 7a cd 05 be
       -0.16505674 0.19574055 -0.09589884 -0.13066664
0000d0 38 3c 01 be 00 dd 3e bc 8a 96 38 be ab db 07 3d
       -0.12620628 -0.01164937 -0.18026176 0.033168476
0000e0 7a 7a a1 3d b8 2e 5b bd 80 63 d7 bd ce 73 08 3d
       0.07884689 -0.05351135 -0.10517025 0.033313565
0000f0 a6 52 b4 3d 32 18 91 bd ba 50 a5 bd af 49 d1 bd
       0.088048264 -0.07084693 -0.08072038 -0.10219132
000100 2a 7e 3b be 4d 01 34 be d6 fd 9f 3b d1 9f 0b be
       -0.18309847 -0.17578621 0.0048825545 -0.13635184
000110 8d f9 3c 3e 8c 64 3e 3d 11 93 5f bd 49 26 41 be
       0.18454571 0.046482608 -0.054583613 -0.18862261
000120 60 26 3c bd 19 47 eb bc 30 d7 02 3e 8e 0e 57 be
       -0.045935035 -0.028720425 0.127774 -0.21001646
000130 12 20 4d 3e 97 c1 81 3d ba fc a3 3d b1 91 2e 3e
       0.20031765 0.063357525 0.08007188 0.17047764
000140 40 81 1e 3e 39 02 ef 3d 7b 08 99 3d 9d b7 32 be
       0.15478992 0.11670346 0.07472321 -0.17452855
000150 15 10 dc 3c 5e 5a 08 be b9 89 26 3c 83 90 3f bd
       0.026863137 -0.13315722 0.010164672 -0.046768676
000160 51 f0 82 3d 90 d7 8d 3d 7c b4 4b 3e 93 c3 5e be
       0.06393493 0.06925881 0.19893068 -0.21754293
000170 39 6c cf 3d 41 e7 6b bc b6 68 0e bd 09 e5 44 3e
       0.10128064 -0.014398397 -0.03476783 0.19227995
000180 43 f6 5f bd b0 75 6c 3d ad cd a8 bd 30 ac ff bd
       -0.054678213 0.057729423 -0.082423545 -0.12484014
000190 1b 19 45 3e 1b dc a6 bb 2b 58 d2 3d 75 53 af 3d
       0.19247858 -0.0050921566 0.10270723 0.0856084
0001a0 52 b4 92 bd 64 6c 9b bd 3e 98 ed bd 67 9c 22 3e
       -0.071632996 -0.07589033 -0.116013035 0.15879975
0001b0 42 9b 0c 3e f7 3b f4 bd dd f7 ac 3d 39 29 c0 bd
       0.13731101 -0.119255 0.08445714 -0.093828626
0001c0 fb 25 e0 bd 44 93 c6 bb 87 a9 b2 bc 99 dd c8 bd
       -0.10944744 -0.006060036 -0.021809353 -0.098078914
0001d0 c1 b6 4d 3d f5 00 20 be 4f bf 12 3e 0d 7a 1a 3e
       0.050223116 -0.15625365 0.14330791 0.15085621
0001e0 08 aa de 3d 09 14 01 be af 9d 2b be 80 41 4a 3c
       0.10872275 -0.12605299 -0.1675937 0.012344718
0001f0 46 cf ff 3d 76 dc 23 bd 10 ed 1e be 30 b2 0c 3c
       0.12490706 -0.04000517 -0.1552012 0.008587405
000200 f3 a2 24 be f0 52 3b be 93 90 b4 3d 7c 79 c6 bd
       -0.16077785 -0.18293357 0.08816638 -0.0969114
000210 8c e6 9d 3c 66 57 67 bd 45 ed 96 3d a2 f5 49 be
       0.019274972 -0.056479834 0.07369474 -0.19722608
000220 aa 4e 20 3e 84 cc 6a 3d d9 67 1a 3e b5 4a 8c bd
       0.15655008 0.057323948 0.15078677 -0.06850187
000230 ae cb 24 3e 21 21 02 3d 20 91 b2 bd 6b 2e 92 3d
       0.16093323 0.031769875 -0.08719087 0.0713776
000240 0f 9e 3c 3e a0 16 5f 3d 67 8e 19 bb 94 81 e2 bc
       0.1841967 0.054464936 -0.0023430826 -0.027649678
000250 eb ab 42 3e bc 74 4a 3e c3 d0 20 3e 32 74 72 bc
       0.19010894 0.19771093 0.15704636 -0.014798211
000260 08 9d 9f bd 1e 28 88 bb aa 80 5d bc f3 f7 17 be
       -0.07793623 -0.004155173 -0.013519445 -0.14840679
000270 37 24 25 bc fe c1 1a 3e ce bd 04 3e d6 31 61 bd
       -0.010079435 0.15113065 0.1296303 -0.054979168
000280 6c 4a 40 3e 68 9b 12 3e 54 7c 4d be e7 40 3b bd
       0.1877839 0.14317095 -0.20066959 -0.045716193
000290 79 c3 dc bb ba 07 97 bd 14 d6 7c 3b c1 27 90 3d
       -0.0067371693 -0.073745206 0.003857975 0.070388325
0002a0 14 3c ac bd 99 1a cf bd 25 f7 10 3e 67 3f 09 be
       -0.084098965 -0.10112495 0.14156778 -0.13403092
0002b0 16 c5 28 be e4 fc b0 3d 66 a4 20 be 04 57 6d bd
       -0.16481432 0.08641985 -0.15687713 -0.057944313
0002c0 7b 39 3a be b8 6c 04 3e 20 ee 99 3d c1 76 d0 bd
       -0.1818599 0.12932098 0.07516122 -0.101789005
0002d0 2f 6c 81 3d 34 7c 94 3d 9b 2b 30 3d 92 94 db 3d
       0.063194625 0.07250252 0.043010335 0.10721697
0002e0 59 86 40 3e 81 91 77 bd 4f ad 24 3e 0d e1 a8 3a
       0.1880125 -0.060441498 0.16081737 0.0012884453
0002f0 de 66 85 3d cb 52 93 bd 72 6c e8 3c 8e 76 77 3c
       0.06513761 -0.07193526 0.028372023 0.015103949
000300 11 3b e9 3d e3 63 36 3e a5 cd 5a bd 6b 07 41 be
       0.11388219 0.17811541 -0.053418774 -0.18850486
000310 ad 02 43 bc 11 21 32 be d2 c0 1b 3e d5 ef 62 3d
       -0.011902493 -0.17395426 0.15210274 0.055404503
000320 f5 7d 3f bd 01 42 8d 3d 66 fd c3 bd 9b 11 33 3d
       -0.04675098 0.06897355 -0.09569816 0.04371796
000330 b9 0d ff bd 22 98 d4 bd 68 81 4e be 84 1f 1c bd
       -0.12453789 -0.103805795 -0.20166552 -0.038115993
000340 2a ac 47 be 2a cb 1a 3e c9 b5 02 3e 1e 78 bc 3c
       -0.19499269 0.15116563 0.12764658 0.023006495
000350 aa 05 32 ba c9 5e 4d 3e fc 4f 06 3e ca 77 6d bd
       -0.0006791005 0.20055689 0.13116449 -0.057975568
000360 99 6f 25 3e 50 f9 14 3e 36 2f 48 3e e6 26 0e 3e
       0.16155852 0.1454823 0.1954926 0.13882026
000370 66 9a 32 be 9d 3a 9f 3d f7 a9 06 3e 3b 4c 44 be
       -0.17441711 0.077748515 0.13150774 -0.19169705
000380 42 ef d9 3d 18 0e e8 3d 6f 13 c1 bd fe 48 01 bd
       0.10641338 0.11330813 -0.09427535 -0.03156375
000390 49 f7 fc bd 7e 46 cd 3c e1 ed 0c bd 49 f6 1f 3e
       -0.123518534 0.025058027 -0.034406547 0.15621294
0003a0 ce c9 8e 3d 04 fe f0 3c cc 61 df bd 95 f3 66 3d
       0.06972085 0.029418 -0.10907325 0.05638464
0003b0 41 48 e6 3d dd 85 9a bd b3 66 8f bd e7 b4 20 be
       0.1124425 -0.07545064 -0.0700201 -0.15694009
0003c0 e2 42 ed 3d cb 6b 7d 3c de db 2a be 69 9e 6b bc
       0.115850225 0.015467594 -0.16685435 -0.01438103
0003d0 24 05 39 3e 04 88 3c 3b 71 2e 14 3e f8 8b 5f 3d
       0.18068367 0.0028767595 0.14470841 0.054576844
0003e0 24 91 99 3c 49 73 fb 3c 14 07 3e 3e a0 89 dc bd
       0.018745966 0.03069462 0.18557388 -0.107684374
0003f0 c8 4a 4d 3c ec bc 93 3d 1c 3d 52 3d 7f bb 17 3e
       0.012530036 0.07213768 0.05132781 0.14817618

sequential/conv1d_2/Conv1D f4 [64, 1, 3, 32]
000000 85 4f 69 3d 9a 3a d7 bc d4 1c d5 3c 59 93 54 3d
       0.0569606 -0.02627306 0.026014723 0.051898334
000010 15 4e a6 3b c1 a1 ac bd 80 bc 1c bc 7a 03 08 3e
       0.005075226 -0.084292896 -0.009566426 0.13282576
000020 cf 79 44 3d 66 a1 9d 3d 7e 34 64 bd 7d b4 d7 3d
       0.04796773 0.076968 -0.055714123 0.10532472
000030 4b 12 35 bd 15 f2 01 3c 97 3f 5f 3c 8c cf bd bc
       -0.0442069 0.007931252 0.013626001 -0.023170255
000040 5a 58 09 be 78 71 93 bd 74 22 f1 3c fe 2d a1 bc
       -0.1341261 -0.07199377 0.029435374 -0.019675251
000050 e2 93 f4 3d 5b ba 5b bd 48 01 8c 3d d2 7f a3 3c
       0.11942269 -0.05364452 0.06836182 0.01995841
000060 2c 3f b4 bd 65 49 0a 3c e4 b4 20 3d 73 8b c5 bd
       -0.088011116 0.00844035 0.03923501 -0.096457385
000070 07 6e e4 bd ce 81 f7 3d e6 c8 c7 bb 5c 5e 7c 3a
       -0.111537986 0.12085305 -0.006096947 0.0009627098
000080 0c 28 d1 3d 48 07 b1 bd 31 fa 3c 3d 82 9f ba 3d
       0.102127165 -0.08643967 0.04613704 0.09112455
000090 ca a2 08 3e cb 58 d3 3d fb 07 da bc ec 77 8c 3b
       0.13343349 0.1031967 -0.026615134 0.0042867567
0000a0 fc f0 1b 3d e0 84 07 bc 56 0a 03 3e 1b 49 2d 3d
       0.038071617 -0.008271426 0.12796912 0.042306047
0000b0 96 51 ca 3d 67 66 84 3c fb d7 3d 3d 98 b4 b1 3d
       0.098788425 0.01616211 0.046348553 0.08677024
0000c0 a9 20 a7 bc 7a c2 e7 3c d7 1a 0d be 2f 5c e4 3c
       -0.020401316 0.028290976 -0.1377977 0.027875988
0000d0 26 38 ab 3d 65 45 12 3e 6d ef 06 3c 6b d3 57 3d
       0.08360319 0.14284284 0.0082357945 0.05269186
0000e0 23 0b d9 3c 52 4e b5 bc bc bf 7f 3d 79 ba 03 be
       0.026494568 -0.022132073 0.06243871 -0.12864102
0000f0 8e a4 b9 3d a9 bb 4b 3d cb 50 94 3d 24 3a 3f bb
       0.090645894 0.049739514 0.072419725 -0.0029178942
000100 95 49 be 3b 46 63 e8 bd cc 66 03 3e c4 ed b6 bd
       0.0058071115 -0.1134706 0.12832183 -0.08932069
000110 92 6f 45 bd 36 88 bf 3d 71 ac e5 3d 47 da fd bc
       -0.048202105 0.09352152 0.11214531 -0.030987872
000120 6b 9d 9e 3c 5c aa 30 bd 7e e3 9c 3d a4 0b 09 3e
       0.019362172 -0.043131217 0.07660578 0.13383347
000130 73 80 45 3d 55 25 01 be 3d b6 aa bd 79 3e f6 3d
       0.0482182 -0.12611897 -0.083355404 0.120236345
000140 3e f0 0b be 21 cd b7 bd 1c af 0a bc ef f0 a0 bd
       -0.13665864 -0.08974672 -0.008464601 -0.078584544
000150 3a 59 04 3d da ff 4b 3d df 42 f2 3d 8b 2e c6 3d
       0.032311656 0.049804546 0.11829161 0.09676846
000160 89 11 93 3d 24 02 13 be c6 c0 ca bc cc b5 a9 bc
       0.07181079 -0.14356285 -0.024750125 -0.02071657
000170 2d ad 90 3d ff 74 b5 3d 6e 60 dd bd 24 6f b7 bc
       0.07064281 0.08860206 -0.10809408 -0.022391863
000180 57 16 c9 3d 70 83 f5 bc 6f 5e 70 3c 49 5a a0 3d
       0.09818714 -0.0299699 0.014670952 0.078297205
000190 d7 74 d7 3d 18 49 b8 bd 81 d4 88 3c 2e aa 0e 3d
       0.10520332 -0.089983165 0.016702892 0.034830265
0001a0 49 06 ee 3c ef e4 6b bc e7 05 c3 bd aa 9e a2 3d
       0.029055731 -0.014397844 -0.0952261 0.07940419
0001b0 19 b5 81 bd d4 7f 9f bc 03 17 23 3d 37 bf 00 3e
       -0.0633337 -0.019470133 0.039816868 0.12572943
0001c0 ae a2 cc bd 3d a7 bc 3d 83 75 c3 bd ef 52 0b be
       -0.09991966 0.09211586 -0.09543898 -0.13605855
0001d0 8a 19 7f 3d 12 40 3f 3d ac 4e a7 3c 70 84 87 bd
       0.062280215 0.04669196 0.020423256 -0.06617057
0001e0 82 85 0b bd 07 b9 9e bd f3 5c 6e bc b5 99 0a 3d
       -0.03406287 -0.07750135 -0.014548528 0.033837993
0001f0 88 f0 b5 3d 7d 27 35 bc a6 dd 08 3e 36 46 a8 bd
       0.08883768 -0.011056778 0.13365802 -0.08216517
000200 6a 07 a6 bd 74 63 69 3d 27 22 01 bd 68 3f f0 3d
       -0.08106883 0.05697961 -0.03152671 0.11730844
000210 81 cf 56 bd c9 91 c0 3c 52 4f 70 bc c7 ce 9b bd
       -0.052443985 0.023507016 -0.014667349 -0.07607799
000220 b0 40 7b 3d e6 01 97 bb ad a7 93 bc e3 95 cd 3d
       0.061340988 -0.0046083806 -0.01802429 0.10038354
000230 ec 69 16 3e 6d e3 06 bd 68 fb 90 bd ec 61 26 3d
       0.14688843 -0.032931734 -0.07079202 0.04062073
000240 be 36 85 3d 3b 24 b2 3d ce da 04 bd 53 14 e6 bd
       0.06504582 0.08698317 -0.03243523 -0.11234345
000250 0f 17 c0 bd ca be b8 3d 9e 9b 15 bd 76 b5 8b 3d
       -0.09379398 0.09020765 -0.03652536 0.0682172
000260 17 53 f3 3d ed 3f a6 3d 0d 3b 4c 3d c5 90 cc bd
       0.118810825 0.081176616 0.049861003 -0.0998855
000270 4d 0b 96 bd 9f 03 57 bd 48 c8 f1 3d 2f af a6 3c
       -0.07326374 -0.052493688 0.11805779 0.020347206
000280 67 ad 3b 3d 15 7d fd bd b6 e3 fa 3c 71 fe ca 3c
       0.045819666 -0.12377373 0.03062616 0.02477953
000290 70 4e 3d 3d f4 d4 50 bd 74 ab 26 3d 36 d7 2f bc
       0.046217382 -0.050984338 0.040690854 -0.010732463
0002a0 22 a1 39 bd 00 46 d7 bd 3d f5 bf 3d 7e ae d8 bd
       -0.045319684 -0.10511398 0.09372947 -0.10580157
0002b0 bb 1c 9f bd 3d 36 c4 bd cf 0e 0e be 75 2e a5 bd
       -0.07769152 -0.09580658 -0.13872837 -0.080655016
0002c0 09 69 90 bd 94 77 ca bd 2a 48 00 bd 33 ca 88 bb
       -0.07051284 -0.09886089 -0.03131882 -0.0041744947
0002d0 41 d8 81 bd 14 b4 0f be e1 3b c7 bd 5b a5 3d bc
       -0.06340075 -0.14033538 -0.09728218 -0.011575068
0002e0 53 1a b0 bd 53 5c 4b 3d f6 2c 94 bd fd 7b 90 bd
       -0.08598771 0.049648594 -0.07235138 -0.07054899
0002f0 00 88 36 3d be ea d2 3d 0a 06 8a 3d 68 48 20 3d
       0.044563293 0.1029868 0.06739433 0.039131552
000300 51 a1 eb 3d e6 dd 05 be 9f fb 00 be 27 4b 4c 3d
       0.11505378 -0.13072929 -0.12595986 0.04987636
000310 ea 28 6e bd d4 31 0b 3e 9b 39 ee 3d 72 54 82 3d
       -0.058144487 0.13593227 0.11632081 0.06363763
000320 bd 08 86 bd dd 4e 45 3d 13 f4 c4 3d d5 0f d1 3d
       -0.065446354 0.048170913 0.09616866 0.10208098
000330 27 29 02 be 73 5b 89 3d 40 b4 13 3d be b3 1f bd
       -0.12711011 0.06706896 0.03606057 -0.038989775
000340 dd b2 3e 3c a9 c6 13 bc 28 3b e9 3d 2d 2a df 3d
       0.011639324 -0.009019532 0.11388236 0.10896716
000350 ae ec 13 be e9 5f b8 3d 4a bc 75 bd 65 22 d6 bd
       -0.14445755 0.090026684 -0.05999402 -0.10455779
000360 16 96 0d 3e b9 59 7c ba c5 a5 cf 3d c2 ef ef bd
       0.13826784 -0.0009626407 0.1013904 -0.11715652
000370 2e 8c 73 bc ea a1 07 be f4 31 c5 bd 91 bc d8 bd
       -0.014864964 -0.13245359 -0.096286684 -0.10582841
000380 ad 4b 63 3d 16 09 7b 3c 8d cd 75 bd 9e db c3 bd
       0.055492092 0.0153219905 -0.06001048 -0.09563373
000390 c4 20 00 3e 45 29 82 3d c3 a6 fb 3d f2 01 91 bd
       0.12512499 0.06355528 0.12287667 -0.07080449
0003a0 88 83 fa 3d 8e 06 06 be f4 81 d8 3d ff b8 84 bd
       0.12232119 -0.13088438 0.105716616 -0.06480598
0003b0 bc b9 11 3e c5 9f af bd 9b 9f b6 bd 72 09 fd 3d
       0.14231008 -0.085753955 -0.08917161 0.12355317
0003c0 30 b0 a9 3c e5 34 fc 3d 3a 82 0f be 93 47 c5 bd
       0.020713896 0.12314776 -0.14014521 -0.09632792
0003d0 ff 8c a5 3d 5e 97 ab 3d 1d b8 66 bd 08 1f c2 bc
       0.080835335 0.083784804 -0.056327928 -0.023696437
0003e0 3c 36 f8 bd 64 15 59 3d 3a 69 03 bc ad 29 90 3d
       -0.121197194 0.052998915 -0.008020693 0.07039199
0003f0 75 1f a9 bd b5 c8 07 3e 14 c5 dd 3d 55 12 b3 bc
       -0.08257953 0.13260157 0.10828605 -0.021859327
