app/src/main/ml/fallModel1.tflite (tflite, 309944 bytes, 20 tensors)

dense/bias f4 [64]
000000 84 8e 08 3c f3 cc dc b7 6e d3 f5 b9 c6 a0 f7 3a
       0.00833476 -2.632148e-05 -0.0004688757 0.0018892519
000010 00 03 a6 38 da d6 b2 3b a6 3b 91 3a 99 7a 76 3b
       7.9160556e-05 0.005457741 0.0011080399 0.0037609695
000020 bc f0 7c 3b 05 97 4b ba 97 c3 a1 39 34 bf 78 3b
       0.0038595637 -0.0007766339 0.0003085404 0.0037955763
000030 c7 8e 82 38 21 5e 94 39 a0 b8 31 3c b9 06 2c 3a
       6.2254774e-05 0.0002829889 0.010847241 0.0006562281
000040 e8 94 5d b9 3b be 99 3a da a3 a7 39 97 10 35 ba
       -0.00021131674 0.0011729667 0.000319748 -0.0006907074
000050 87 31 e3 b9 9e fc 1c ba f1 da 34 39 1a 08 a3 3b
       -0.00043333715 -0.00059885706 0.000172477 0.004975331
000060 2a ca b3 39 76 a0 60 3b f8 67 98 b9 3b 28 77 3a
       0.00034292164 0.003427533 -0.00029069162 0.0009428297
000070 e6 13 28 3a f7 35 dc b8 07 08 59 3b 47 28 1b 3a
       0.00064116565 -0.00010500469 0.0033116357 0.00059187826
000080 ef 9b b5 b8 e8 a4 7c 3b 61 3f 3a 3a eb 48 d1 38
       -8.6597975e-05 0.003855044 0.0007104781 9.979479e-05
000090 28 dd 88 b9 02 09 7f 3b fd 58 ce 3b a9 f5 a6 3b
       -0.00026104716 0.0038915281 0.0062972293 0.005095203
0000a0 d1 88 01 3b 40 50 15 3b d5 4c cd 3b a2 b4 34 3a
       0.0019765387 0.0022783428 0.0062652626 0.00068933715
0000b0 87 5c 16 39 95 8f 7b b9 9f 6c e4 b9 f4 0a 3f 3a
       0.00014339584 -0.00023990714 -0.00043568478 0.0007287704
0000c0 44 0a 22 3b f3 5f d8 3b 99 f8 5c 3b 23 e0 1f 39
       0.0024725357 0.006603235 0.0033717512 0.00015246919
0000d0 74 49 fc 3b 54 10 39 ba f1 6d 07 3a b3 0f 9f ba
       0.007699186 -0.0007059623 0.0005166224 -0.0012135416
0000e0 5c 26 0c 3a dd cf 48 39 76 ae d3 3b d2 24 16 3b
       0.0005346292 0.00019150921 0.0064600063 0.002291013
0000f0 60 6f b9 3a 76 d7 0b 3c a7 cd c7 b8 b5 92 23 3a
       0.0014147572 0.008535257 -9.527365e-05 0.00062398176

conv1d_3/bias f4 [128]
000000 67 8b 5c 39 bb c5 81 bb 3c 68 38 3a 2a 69 8c 3a
       0.00021032766 -0.003960339 0.0007034575 0.0010712494
000010 af 5e 43 3b f4 83 49 3b d7 3f 8f ba 2a cc 77 39
       0.0029811074 0.0030748816 -0.001092906 0.00023631813
000020 0f 4b 96 3a 5d 8a 6c bb be 3c 20 bb 61 81 16 3a
       0.0011466461 -0.0036093213 -0.0024450268 0.0005741325
000030 b0 cd fc 3a 80 26 89 b9 b6 b0 d4 b9 6c be 1e b9
       0.0019287374 -0.0002615936 -0.0004056745 -0.00015138992
000040 e7 f3 8c b9 f0 a4 3a ba 90 83 c2 3a bb 7d 80 3b
       -0.00026884602 -0.00071199145 0.0014840234 0.0039212382
000050 f9 22 55 3b eb 53 8f 3a e8 13 32 ba 78 af 3b 3a
       0.0032522066 0.0010935044 -0.00067931274 0.0007159631
000060 d0 0f 0c 3b d9 6a 84 3a 51 f5 1d 3b a6 f0 4f 3a
       0.002137173 0.0010102644 0.0024102519 0.0007932283
000070 34 6b 32 bc 61 90 69 bb 4c b8 e2 ba ae 5f e1 b9
       -0.010889817 -0.0035639035 -0.0017297356 -0.0004298663
000080 38 f5 b0 3a 74 58 1e ba 09 de ba ba 63 98 b2 ba
       0.0013500815 -0.0006040402 -0.0014256845 -0.0013625737
000090 6e 0a f1 39 f9 df 84 3b 4a c8 2f 3b e8 43 2d bb
       0.00045974873 0.00405502 0.0026822262 -0.002643818
0000a0 b3 0c 13 bb b2 4b ec ba cc 6e 42 3b f1 8b 91 39
       -0.002243799 -0.001802793 0.002966809 0.0002776082
0000b0 59 8a c2 3b f1 a3 9d ba a4 65 10 3b aa ce 3c ba
       0.0059369025 -0.0012027008 0.0022033239 -0.0007202426
0000c0 7c 7a 4e 3b 3a 45 aa 3a f8 4b e7 3a fe 28 61 ba
       0.0031506112 0.0012990602 0.0017646542 -0.0008589177
0000d0 ad 0b 04 ba 56 3f da ba b5 a5 cc b9 04 60 4f 3b
       -0.000503714 -0.0016650956 -0.00039033373 0.0031642923
0000e0 e5 9d 05 3b 39 b9 f1 3b f6 c4 93 bb a1 de 1b 39
       0.0020388302 0.0073768166 -0.0045095636 0.00014864888
0000f0 46 1a 14 bb a3 74 67 b8 78 d7 a2 3a b6 a9 8b 3a
       -0.0022598668 -5.518332e-05 0.0012423834 0.0010655436
000100 34 36 85 bb d9 7d 24 3a d1 c9 82 bb d4 cb 7b 3b
       -0.0040652994 0.0006274856 -0.0039913435 0.0038421052
000110 d4 0b e7 3b 09 27 3f bb 13 32 3b 3b 4d 5d 58 38
       0.0070509706 -0.0029167554 0.0028563782 5.1585306e-05
000120 3a 58 e3 3a 7f c6 d4 3a 79 e3 ae 3a 63 cb 82 b9
       0.0017345019 0.0016233473 0.0013342939 -0.00024947067
000130 d6 a2 0c 3b 84 99 2a bb f9 d7 3b 3b ea ff 64 bb
       0.0021459362 -0.0026031444 0.0028662665 -0.0034942576
000140 78 99 8a 3b 17 c9 97 bb 4a df 9c bb 93 25 e7 39
       0.0042297207 -0.004632126 -0.0047873603 0.00044087748
000150 48 b7 8a 3a 8b 17 08 3b 2d c8 1e 3b 6b e0 29 ba
       0.0010583187 0.0020765986 0.00242282 -0.0006480279
000160 cd 14 80 3a 69 c4 fe 3b 88 d9 fb 3a 7c f0 87 ba
       0.0009771824 0.0077748788 0.001921461 -0.0010371353
000170 60 be 05 bb 2c 0f bd b9 8c 8b fb 39 c6 a6 e9 b9
       -0.0020407662 -0.00036060193 0.0004797842 -0.0004456548
000180 4d 9e 45 3b 1c a6 41 3b d7 33 f4 39 e8 03 63 3b
       0.003015417 0.0029548472 0.0004657793 0.003463978
000190 23 2c 77 bb 9d ad 36 ba f2 33 ed b9 68 ff 75 3b
       -0.0037715517 -0.00069686194 -0.00045242865 0.0037536267
0001a0 d4 f4 c1 3b b4 c1 51 3b 72 f5 45 3a 92 aa aa b9
       0.0059190784 0.0032006325 0.0007551528 -0.00032552012
0001b0 f7 57 0f 37 ca ac bf 3a f7 48 d9 3a df 2f a6 b8
       8.543945e-06 0.0014623639 0.0016577531 -7.9244135e-05
0001c0 cc ab 8c 3b 33 b8 91 3b d4 d1 3c ba 5c 0e 84 bb
       0.0042929407 0.004447007 -0.00072028977 -0.004030032
0001d0 35 9d 29 3a 3d fc 49 b9 9d e7 1e 3b 06 71 16 bb
       0.0006470264 -0.0001926282 0.002424694 -0.002295555
0001e0 f6 c4 24 b8 9b 27 45 ba 30 ca c2 b5 35 1d 25 3b
       -3.928408e-05 -0.0007520855 -1.4512971e-06 0.002519441
0001f0 f0 fe 61 3b 6b b6 35 bb ff ca c9 3b c3 40 33 3a
       0.003448423 -0.0027727138 0.006158232 0.00068379584

conv1d_2/bias f4 [64]
000000 df 80 2a 3b cd f2 f6 b9 32 b6 df 3b 10 f3 4d bb
       0.0026016755 -0.00047101677 0.0068271393 -0.0031425394
000010 d2 c0 08 3c 2f 85 d9 bb 76 d9 44 3a c2 16 ef 3a
       0.008346753 -0.006638191 0.0007509211 0.0018241035
000020 2b 85 42 bb e1 7d bd 3b 01 eb 0b bb d7 5d 0d bc
       -0.0029681425 0.005782828 -0.002134979 -0.00862833
000030 ac 52 85 bb 6d 95 aa bb e1 3a a4 bb 4a 2f 10 3b
       -0.004068693 -0.005205801 -0.0050119017 0.0022000843
000040 13 a1 49 3b 76 ac a4 b9 0b cf 51 3a 54 30 0f 3b
       0.0030766174 -0.0003140901 0.0008003569 0.0021848874
000050 31 09 df b9 db 49 f6 3b 1e 8f 60 ba d7 82 d3 b9
       -0.00042540723 0.0075161285 -0.0008566248 -0.0004034254
000060 66 11 d2 3b ef 4b 33 3b 05 1b 27 3b 6c 0f 94 bb
       0.0064107655 0.0027358492 0.0025498283 -0.00451844
000070 7a 43 ac 3a 56 cf 11 bb 68 34 b9 ba 3c 3f ce bb
       0.0013142668 -0.0022248826 -0.0014129998 -0.006294159
000080 a7 41 23 bb e4 50 07 3a 04 3e 7a 3a c4 ca 32 3b
       -0.0024910958 0.0005161895 0.0009545984 0.0027281502
000090 76 42 76 3b 59 75 ec 3a 04 9e 36 3b 57 52 4a ba
       0.0037576235 0.0018040343 0.002786518 -0.0007717958
0000a0 6d 43 33 ba 3a c8 67 3b 79 5d 96 3a 4d 60 de b9
       -0.00068383553 0.0035367147 0.0011471949 -0.0004241489
0000b0 ef 60 de bb 39 02 7b 3b a5 be 88 bb 37 95 63 bb
       -0.0067864577 0.0038300885 -0.004173117 -0.003472639
0000c0 ba 87 68 bb 92 e2 94 3a bc 89 f2 b9 f4 ce 13 3a
       -0.003548129 0.0011359027 -0.00046260457 0.00056384434
0000d0 bb d7 1f bc 4c 20 8a ba 00 d7 69 b9 b3 4b 85 b7
       -0.009756024 -0.001053819 -0.00022300705 -1.5890086e-05
0000e0 a6 2e f1 3b 16 9c 87 3b 32 3e 53 bb d9 25 0e 3a
       0.0073602973 0.00413848 -0.0032233116 0.000542251
0000f0 7c 6d 18 3b e1 bd 9f 3a 54 07 bc 3b ee 42 80 3b
       0.0023258617 0.0012187326 0.0057381783 0.0039142286

conv1d_1/bias f4 [32]
000000 d4 af 90 bc d8 0b 21 3b 7f f8 a1 3a a4 08 f3 ba
       -0.017661966 0.002457371 0.0012357383 -0.0018542004
000010 ee e7 09 3c 9e fe ca 3b e3 9d 51 bb 45 0a 8e 3b
       0.008417113 0.0061949035 -0.0031984977 0.0043347203
000020 e5 e9 a6 bb c7 e4 09 ba 30 5d b0 3b 79 ce 5f 3c
       -0.0050938004 -0.0005260226 0.0053822026 0.013660067
000030 64 1e 26 3b 8e cb c7 3a e3 f8 bd 3b c7 23 a0 3b
       0.0025347704 0.0015243159 0.005797492 0.0048870775
000040 63 63 1d bc a3 15 51 3b 6a ad b7 bb 13 26 1f 3c
       -0.009606215 0.0031903766 -0.0056053894 0.009713667
000050 ce 63 ae 3b 9d 72 19 bb 3f 3d 72 3c 1e 5f 25 ba
       0.0053219562 -0.0023414262 0.01478511 -0.0006308424
000060 c9 9b d1 bb 9f 17 aa 3b 94 47 df 3c 8b 7d c8 b9
       -0.006396745 0.005190804 0.02725581 -0.0003824051
000070 cc db 68 bb ea 75 f8 3b f2 9e 72 3b e8 cf ba 3b
       -0.00355314 0.007582416 0.0037021008 0.005701054

conv1d/bias f4 [16]
000000 fb 7a 14 38 23 78 28 b9 b8 d9 15 bb 0c 6e 06 3b
       3.5400484e-05 -0.00016066483 -0.0022865366 0.002051237
000010 ce 0c 18 3b 7c 3e 09 3a 26 34 e5 3a e6 97 96 3a
       0.0023200992 0.0005235446 0.0017486855 0.0011489361
000020 86 b4 2d bb a7 05 ac bb 2a c4 81 bb ca fb 9b 3b
       -0.0026505305 -0.0052496972 -0.003960152 0.00476024
000030 fa fa d0 b9 e5 c1 ec ba 86 bd 46 3a 4b 7b 66 3b
       -0.00039859844 -0.0018063156 0.0007581342 0.0035168703

sequential/batch_normalization_1/batchnorm/mul f4 [32]
000000 db 98 c1 3f ee 51 24 40 25 c7 93 3f ee 8b 15 40
       1.5124773 2.5675006 1.1545149 2.3366656
000010 ec 7e 05 40 80 4f ff 3f d2 da 04 40 28 0a c7 3f
       2.0858717 1.9946136 2.0758557 1.5549974
000020 66 6b c3 3f 6c d3 bc 3f 70 39 95 3f 42 be 0f 40
       1.526715 1.4752021 1.1658154 2.2459874
000030 4f bc 0e 40 0a 97 8d 3f 2f 0a b7 3f 5f 28 9f 3f
       2.2302434 1.1061718 1.4299983 1.2434195
000040 ff 6c 05 40 c8 27 c7 3f 29 a6 f5 3f 43 ee 03 40
       2.0847776 1.5559015 1.9191333 2.0614173
000050 c2 8a ba 3f ca 42 ae 3f 5c aa 30 40 c2 d5 e2 3f
       1.4573596 1.3614132 2.760398 1.7721484
000060 d1 ce af 3f 60 89 ee 3f bb a6 6c 40 7e 16 9e 3f
       1.373499 1.8635674 3.6976764 1.2350614
000070 a5 54 a1 3f 73 06 b8 3f 0d fb 10 40 fb 35 d4 3f
       1.2603956 1.4376968 2.265323 1.6578974

sequential/batch_normalization_1/batchnorm/sub f4 [32]
000000 84 cf 06 bf fe 3b 26 bf 60 47 c9 be e1 c3 16 bf
       -0.52660394 -0.6493529 -0.39312267 -0.5889264
000010 55 ee 11 bf 68 95 d4 be 22 d6 d2 be 45 11 f5 be
       -0.5700429 -0.41520238 -0.41178995 -0.47864738
000020 5c d3 e6 be 8a 49 0f bf ae 53 b5 be 77 4d 40 bf
       -0.4508313 -0.55971587 -0.35415405 -0.751182
000030 f0 68 6d bf cb 4b df be 00 70 10 bf bd 32 ff be
       -0.92738247 -0.43612513 -0.564209 -0.49843398
000040 da f5 16 bf 84 31 ac be df ff df be 7c 83 e5 be
       -0.5896889 -0.33631527 -0.43749902 -0.44826877
000050 b4 45 00 bf f3 74 9a be 56 1a 32 bf 70 b2 ab be
       -0.5010636 -0.3016735 -0.69571435 -0.33534575
000060 48 9d c0 be 2d d9 c8 be 20 ce 8c bf f2 51 bf be
       -0.37619996 -0.39228192 -1.1000404 -0.37367207
000070 9e 02 8b be 15 a1 bc be 57 bd 05 bf 02 5f 18 bf
       -0.27150434 -0.36841646 -0.52242035 -0.5951997

sequential/batch_normalization_2/batchnorm/mul f4 [64]
000000 17 bd 3a 40 bf 76 3a 40 a5 43 04 40 5e b4 06 40
       2.9177911 2.9134977 2.0666287 2.1047587
000010 0e d8 7e 40 c6 44 0f 40 f5 6d c3 3f 41 11 99 3f
       3.981937 2.2385726 1.5267931 1.195839
000020 ac 65 17 40 c5 29 df 3f fa 90 32 40 f0 96 02 40
       2.3655806 1.7434622 2.7900987 2.0404625
000030 29 45 dd 3f 59 c1 29 40 ad e5 f1 3f 59 b1 c5 3f
       1.7286731 2.652426 1.8898216 1.5444747
000040 80 2e ea 3f 6e fd 81 3f 2a 40 8c 3f 11 5e 09 40
       1.8295441 1.0155466 1.0957081 2.1463664
000050 6b 22 89 3f 3f a5 42 40 ad 2c 41 40 79 e3 9d 3f
       1.0713629 3.0413358 3.0183518 1.2335044
000060 75 f1 15 40 16 24 83 3f 46 c6 32 40 49 df db 3f
       2.3428624 1.0245388 2.7933517 1.7177516
000070 00 d8 11 40 72 6e 90 3f b9 db 02 40 64 cc 71 40
       2.2788086 1.1283705 2.0446608 3.7781
000080 16 a2 6d 3f 3b 8c 29 40 ac 19 7c 3f 5f 3c e3 3f
       0.9282545 2.649184 0.9847667 1.7752799
000090 e9 ff dc 3f 2b 93 d2 3f e3 6d 83 3f a8 f1 de 3f
       1.7265598 1.6451162 1.026791 1.7417498
0000a0 f6 2d b0 3f d0 ff 9d 3f fa fa 06 40 86 8e 27 40
       1.3764026 1.2343693 2.1090684 2.618074
0000b0 4d 0a 7c 3f 32 2a 19 40 8a 0e 10 40 bd cd 97 3f
       0.9845322 2.3932004 2.2508874 1.1859661
0000c0 68 38 7a 40 34 89 03 40 16 67 b7 3f 44 66 82 3f
       3.9096928 2.0552492 1.4328334 1.0187459
0000d0 90 ac 40 40 17 79 02 40 d7 0a 92 3f 05 27 83 3f
       3.0105324 2.0386407 1.1409558 1.0246283
0000e0 e0 74 40 40 4f aa d7 3f cd ed b7 3f 0c f1 97 3f
       3.0071335 1.6848849 1.4369446 1.1870437
0000f0 5d 36 97 3f f3 6b 7f 40 81 9b 23 40 9e a2 17 40
       1.1813465 3.9909637 2.5563662 2.3693004

sequential/batch_normalization_2/batchnorm/sub f4 [64]
000000 46 31 0a bf e0 45 2f bf 75 88 cf be 1c ce e8 be
       -0.53981435 -0.68465996 -0.40533796 -0.4546975
000010 03 cc 67 bf bf 4c cb be 36 9d fa be 7a e0 8e be
       -0.9054567 -0.3970699 -0.48948067 -0.27905637
000020 e2 cd 0d bf c0 48 10 bf b8 de 16 bf fe be ed be
       -0.5539228 -0.5636101 -0.5893359 -0.46434778
000030 b9 92 ca be a3 11 b1 be 21 98 1e bf 21 cf d6 be
       -0.39565066 -0.34583768 -0.6195088 -0.41954902
000040 96 da ef be c1 89 ae be 8e 08 f8 be a4 74 fe be
       -0.46846455 -0.34089473 -0.48444027 -0.49698365
000050 94 3b a7 be ba b3 62 bf 2d a8 0b bf 44 0a cf be
       -0.32662642 -0.8855549 -0.5455349 -0.4043752
000060 7d 52 1a bf bc 75 fe be c7 69 29 bf c0 f9 bd be
       -0.6028212 -0.496992 -0.6617703 -0.37104607
000070 13 b5 25 bf dd de f8 be 73 4e f1 be 6d 4f 39 bf
       -0.6472942 -0.4860753 -0.47130165 -0.7238682
000080 e7 78 f9 be 76 ee 3c bf 70 30 b6 be 41 b6 fb be
       -0.48725054 -0.7380136 -0.3558383 -0.49162486
000090 f6 7f e8 be 7c 57 76 bf c1 17 d6 be 37 86 da be
       -0.45410126 -0.9622724 -0.41814998 -0.42680523
0000a0 94 23 1b bf cd ca ec be 5b 23 65 bf e7 70 7c bf
       -0.6060116 -0.46248475 -0.89507073 -0.98609775
0000b0 d6 8c 9a be f3 08 25 bf 6a 6d f9 be 18 52 95 be
       -0.30185574 -0.6446678 -0.4871629 -0.29164195
0000c0 85 1f 56 bf 76 5c 17 bf 64 65 af be 1f 4a bb be
       -0.83641845 -0.5912546 -0.34257042 -0.36579987
0000d0 37 af 4c bf d9 6e fa be 58 fe da be 19 ab 9b be
       -0.79954857 -0.48912695 -0.42772174 -0.30403975
0000e0 9e 9c 27 bf 62 b2 02 bf 88 7c d7 be 59 40 ad be
       -0.65473354 -0.5105344 -0.42087197 -0.33838156
0000f0 9d 5e 02 bf fb 95 30 bf d6 7d 72 bf ec fa 3a bf
       -0.5092562 -0.6897885 -0.9472326 -0.73039126

sequential/batch_normalization_3/batchnorm/mul f4 [128]
000000 99 b5 cf 3f 6e ad 6d 3f e1 b3 b5 3f 3f b0 02 40
       1.6227294 0.9284276 1.419552 2.0420072
000010 68 b3 e5 3f d3 88 04 40 19 12 31 40 2a af 90 3f
       1.7945375 2.070851 2.7667296 1.1303456
000020 52 b6 67 3f a0 a7 97 3f 10 1e bb 3f 1f 86 2b 3f
       0.90512574 1.184803 1.4618549 0.6700153
000030 c4 ff 37 40 27 47 06 40 6a 52 98 3f 62 1b bc 3f
       2.8749857 2.0980928 1.1900151 1.4695857
000040 36 cf 8d 3f 17 6a af 3f 1d b2 ac 3f 6a 71 eb 3f
       1.1078861 1.3704251 1.3491856 1.8393986
000050 23 e5 0c 40 9c fc 06 40 c7 54 b2 3f 1c cd f4 3f
       2.2014854 2.109168 1.3932122 1.9125094
000060 f2 4c 85 3f 20 04 a5 3f 22 c2 7e 40 4d bb f1 3f
       1.0414107 1.2891884 3.980599 1.8885285
000070 b6 5f c6 3f 45 f5 81 3f 4e e3 6f 3f 56 3d 64 40
       1.5497959 1.0152975 0.93706214 3.5662436
000080 a1 b3 fb 3f 10 4d 16 40 c3 87 51 3f da 8f 98 3f
       1.9664193 2.3484535 0.8184778 1.19189
000090 71 f9 d1 3f 05 20 4d 40 76 ea bd 3f 05 79 a7 3f
       1.6404248 3.2050793 1.4837177 1.3083807
0000a0 8e b8 19 40 02 3a c4 3f 58 34 ca 3f 93 1a f5 3f
       2.4018893 1.5330203 1.5797224 1.9148735
0000b0 04 6d 1f 40 e1 78 f3 3f a9 59 1d 40 7d 0a 5c 3f
       2.4910288 1.9021264 2.4585974 0.85953504
0000c0 19 37 d2 3f 89 51 d1 3f 2f ed 32 40 bd 7f cd 3f
       1.6423064 1.6353008 2.7957265 1.6054608
0000d0 21 a6 78 40 66 66 f3 3f bc 70 ae 3f c6 11 1c 40
       3.8851397 1.9015625 1.3628154 2.4385848
0000e0 a0 dd 91 3f b8 4b 25 40 8f 08 0a 40 fa 2f 95 3f
       1.139576 2.5827465 2.1567724 1.1655266
0000f0 cb e7 bc 3f ad 9b d9 3f a1 77 52 40 4b c9 af 3f
       1.4758238 1.7000633 3.2885516 1.3733305
000100 00 df c4 3f fd 10 5e 3f d8 9d 14 40 46 5b 19 40
       1.5380554 0.8674467 2.322134 2.396196
000110 a0 c3 32 40 29 78 5e 3f 61 aa b4 3f b1 6b 4c 3f
       2.79319 0.869021 1.4114496 0.79851824
000120 54 59 24 3f 9f 60 7c 3f 82 a3 70 3f 6e 00 bd 3f
       0.64198804 0.9858493 0.93999493 1.4765756
000130 b0 7c c9 3f b9 d9 ac 3f b0 a2 fa 3f 67 e3 47 3f
       1.5741177 1.3503944 1.9580898 0.78081363
000140 20 b5 44 40 5e 01 a5 3f 97 a9 0c 40 ef 04 78 3f
       3.073555 1.2891042 2.197851 0.9688253
000150 c0 f9 0c 40 67 5e 6a 40 9d 93 f1 3f 61 69 53 3f
       2.2027435 3.6620119 1.8873173 0.8258267
000160 2e eb 0d 40 bf a8 34 40 ba 99 c6 3f 9b 40 ad 3f
       2.2174792 2.8227994 1.5515664 1.3535341
000170 3f 2c e7 3f e5 87 0a 40 23 2d d6 3f 34 99 1b 40
       1.8060378 2.1645443 1.6732525 2.4312258
000180 41 1c 06 40 ff 81 81 3f ae 32 c0 3f 8b a7 06 40
       2.0954745 1.0117797 1.5015466 2.103976
000190 60 5c 85 3f 02 06 b2 3f f8 df 95 3f 22 7c f6 3f
       1.0418816 1.3908083 1.1708975 1.9256632
0001a0 2d 7a 44 40 e1 1f 09 40 3c 80 c9 3f d9 19 63 3f
       3.069957 2.1425707 1.5742259 0.88711315
0001b0 51 ef f3 3f 0d 2c cd 3f 9d 69 ce 3f 04 9c d2 3f
       1.9057409 1.6029068 1.6125981 1.6453862
0001c0 cc e1 53 40 76 36 3d 40 2b 27 8d 3f bb 71 d3 3f
       3.3106565 2.956449 1.1027578 1.6519083
0001d0 bb d0 09 40 68 51 00 40 8a a7 14 40 3c 2e d4 3f
       2.153365 2.0049686 2.3227258 1.657661
0001e0 85 f9 24 3f c2 e1 25 40 d8 c1 46 3f 33 4b c4 3f
       0.64443237 2.5919042 0.7763953 1.5335449
0001f0 15 ba 2a 40 48 16 8f 3f 90 cc 1a 40 b5 b2 d6 3f
       2.6676075 1.1178675 2.4187355 1.6773287

sequential/batch_normalization_3/batchnorm/sub f4 [128]
000000 0b 07 0c bf cd 1a c4 be d6 b2 d9 be 8d 01 3b bf
       -0.54698247 -0.38301697 -0.42519253 -0.7304924
000010 2b a3 45 bf 67 ff 32 bf 69 3d 36 bf e1 32 0b bf
       -0.772021 -0.69920963 -0.71187454 -0.5437451
000020 d3 66 d8 be ce 02 cd be c5 c1 ec be 2d fd 0d bf
       -0.4226595 -0.40041202 -0.46241584 -0.5546444
000030 d7 25 03 bf 69 d5 19 bf 59 e8 e9 be 0f 74 01 bf
       -0.51229614 -0.60091263 -0.4568508 -0.50567716
000040 b1 43 f3 be 75 59 bf be 5c 67 26 bf 06 0e 54 bf
       -0.47512582 -0.37372938 -0.65001464 -0.828339
000050 a4 37 5b bf 31 9b 21 bf f3 e3 09 bf d0 af 36 bf
       -0.85631776 -0.6312743 -0.5386345 -0.7136202
000060 2c 86 e7 be 2a 47 ed be 5b e0 20 bf 98 c2 2c bf
       -0.45219553 -0.46343356 -0.6284234 -0.67484426
000070 40 4d b8 be 52 c3 00 bf 30 37 db be f0 06 1e bf
       -0.35996437 -0.50298035 -0.42815542 -0.61729336
000080 45 be 1c bf 2a db 32 bf c2 04 f0 be 8b 5c f6 be
       -0.6122783 -0.6986567 -0.4687863 -0.4811748
000090 20 62 ea be f7 24 09 bf 80 af 34 bf 66 80 09 bf
       -0.45777988 -0.5357203 -0.7058029 -0.53711545
0000a0 a0 57 08 bf 5e 3f d0 be 2d 4e 3b bf 35 f3 fb be
       -0.53258705 -0.40673345 -0.7316616 -0.4920899
0000b0 b5 74 21 bf c3 20 e1 be 60 5b 0b bf f1 26 b9 be
       -0.63068706 -0.43970308 -0.544363 -0.36162522
0000c0 ec 76 15 bf 51 f9 73 bf 9c a8 3f bf f4 bf 7f bf
       -0.58384585 -0.953023 -0.7486665 -0.9990227
0000d0 f3 6e 33 bf 36 a4 74 bf 6b 5d db be 2f a2 2e bf
       -0.7009117 -0.95563066 -0.4284471 -0.6821622
0000e0 1d 6b bd be ce 83 7a bf 35 f7 34 bf f7 0d 02 bf
       -0.36995783 -0.9785737 -0.7068971 -0.5080256
0000f0 68 bd f0 be 11 b1 13 bf a6 32 12 bf 42 7c f1 be
       -0.47019506 -0.57692057 -0.57108533 -0.47165114
000100 7e 7a 09 bf d0 9b dc be 36 a2 f8 be 76 d4 32 bf
       -0.53702533 -0.43087626 -0.48561257 -0.6985544
000110 b8 25 5a bf 51 8d f0 be a2 dc 15 bf e1 5d fd be
       -0.85213804 -0.46982816 -0.58539784 -0.49485686
000120 7a 9c e5 be 5c a1 dc be 90 19 01 bf a3 13 08 bf
       -0.44845945 -0.43091857 -0.5042963 -0.53154963
000130 30 0f 04 bf 7c b6 cd be 05 39 10 bf 35 d8 c7 be
       -0.51585674 -0.40178287 -0.56337005 -0.3903214
000140 84 56 31 bf db c0 0d bf 77 7b c3 be fd 8a 06 bf
       -0.6927264 -0.553724 -0.38180134 -0.5255583
000150 77 39 2a bf dc 11 42 bf 68 33 0c bf 31 22 e6 be
       -0.66493934 -0.758085 -0.5476594 -0.4494796
000160 21 5b 57 bf 78 d1 12 bf 22 38 ba be 64 5e 07 bf
       -0.84123427 -0.57350874 -0.3637095 -0.52878404
000170 e5 73 40 bf 58 e6 03 bf 34 f3 10 bf f1 16 37 bf
       -0.7517684 -0.5152335 -0.566211 -0.7151938
000180 65 19 d4 be 15 3c ff be 4b 7c 49 bf 51 3a fc be
       -0.41425624 -0.49850526 -0.7870528 -0.49263242
000190 5f 9e a8 be 0d ff 1a bf 14 e8 e0 be 76 f2 0a bf
       -0.32933328 -0.60545427 -0.43927062 -0.54276216
0001a0 dd 64 59 bf c3 2e 05 bf e4 50 39 bf e0 77 eb be
       -0.8491953 -0.5202448 -0.72389054 -0.45989895
0001b0 c7 36 13 bf ff ba 08 bf 20 18 c9 be ab 29 05 bf
       -0.5750546 -0.53410333 -0.39276218 -0.52016705
0001c0 5f f8 35 bf e0 8c 65 bf 16 99 d6 be 4e fa f2 be
       -0.7108211 -0.89668083 -0.4191367 -0.47456592
0001d0 39 ad 47 bf f3 a1 17 bf 10 f9 67 bf fe d0 fa be
       -0.7799869 -0.5923149 -0.90614414 -0.48987573
0001e0 6b 0a d3 be 1c 9e de be cd 10 0f bf 15 d4 15 bf
       -0.41218886 -0.43480003 -0.5588501 -0.58526736
0001f0 dc a3 6a bf 3d 54 d4 be 49 9d 6f bf d6 59 29 bf
       -0.9165628 -0.4147052 -0.93599373 -0.66152704

sequential/batch_normalization/batchnorm/mul f4 [16]
000000 b8 75 9d 3e 74 91 bd 3e c2 ac 2d 3f b8 08 01 3f
       0.30753875 0.37025034 0.6784173 0.5040393
000010 c8 4b 6f 3e af 08 d6 3e 94 44 4a 3f 51 b1 c6 3e
       0.23368752 0.418035 0.7901089 0.38807157
000020 dc 27 aa 3e 41 c4 a2 3f 0d 5d fa 3e fc 39 29 3f
       0.33233535 1.2716142 0.48899117 0.661041
000030 e2 e6 dc 3e d4 36 d3 3e 33 2e bf 3e e6 73 59 3f
       0.431449 0.41252768 0.37339935 0.8494247

sequential/batch_normalization/batchnorm/sub f4 [16]
000000 3c 49 8b bf c6 9a c0 be b5 3b b4 be 91 e3 e7 be
       -1.0881724 -0.37618083 -0.35201803 -0.45290807
000010 3a 42 90 bf f5 3b 81 bf 68 f2 b2 be 8d db 60 bf
       -1.1270211 -1.0096422 -0.34950566 -0.8783501
000020 8e c6 10 bf c1 79 46 be f0 42 ba be de 7a c1 be
       -0.5655297 -0.19382383 -0.36379194 -0.37789053
000030 6c c1 0c bf 15 1f 89 bf e2 be b6 be a1 98 10 bf
       -0.5498264 -1.071261 -0.35692507 -0.56482893

sequential/dense/MatMul f4 [64, 640]
000000 fc 38 81 bd 2d ec 2d bd 63 79 95 3c 37 46 4b 3d
       -0.06309697 -0.042461563 0.018246358 0.04962751
000010 10 70 b9 3a 81 74 74 bb 6e 14 93 bc a5 4f d4 bb
       0.0014147777 -0.0037300887 -0.017954078 -0.006479221
000020 7d 52 54 3c fb 97 1c bc 49 10 b6 3d df 63 b0 bd
       0.01295912 -0.009557719 0.08889825 -0.08612799
000030 32 9e 31 3d f6 56 a6 bd 32 c4 19 3c 85 b9 72 bd
       0.043363757 -0.08122055 0.0093851555 -0.059258956
000040 8b 53 db bb 25 ba 6c bd 2f 0a 32 3d 29 f5 3f 3b
       -0.0066933087 -0.05779471 0.043466743 0.0029290414
000050 c1 18 b2 bb c1 65 ac 3d 03 52 30 bd d7 0b bb bd
       -0.00543508 0.084178455 -0.043046962 -0.09133118
000060 fd e0 85 3d a0 24 08 3d 6a 1b 74 3d ec d9 ab 3c
       0.06537054 0.033238053 0.059596457 0.020977937
000070 0a 98 bd 3d 2b 3a 6d bd 39 bb 88 3c fb c7 00 bd
       0.09257515 -0.0579168 0.016690837 -0.031440716
000080 fe bb 67 bd ff 50 4c bd 60 27 9e bd e2 c9 a7 3d
       -0.056575768 -0.04988193 -0.07722354 0.08192803
000090 77 e3 0d 3d 18 42 b4 bd e5 53 1f 3d 5b 64 23 3c
       0.034640756 -0.08801669 0.038898367 0.009972657
0000a0 12 38 84 3d 40 7b 96 bb c3 43 aa 3b 43 d5 4a 3d
       0.06456007 -0.0045923293 0.005196066 0.04951979
0000b0 90 92 0a bb 8a ec b2 bc 38 7b 69 bd 39 fc 61 3d
       -0.0021144487 -0.021841306 -0.057002276 0.05517218
0000c0 6b f9 fe 3c 2a 39 15 bd ec 27 6f bd 1f 18 90 bd
       0.031124791 -0.03643147 -0.05838768 -0.07035851
0000d0 33 31 93 3d ce 69 74 3d 30 7f 3a bd e6 e0 16 bb
       0.071871184 0.059671216 -0.04553145 -0.0023022234
0000e0 f1 10 9b 3d c3 6c 86 3d 97 5e a8 bd c8 23 26 bd
       0.07571591 0.065637134 -0.082211666 -0.040561467
0000f0 e8 e9 22 bd c1 42 2a 3d a2 c2 e5 3b ec 2e 3c 3d
       -0.03977385 0.041567568 0.0070117274 0.045943186
000100 76 8c 24 3d be 24 52 3d 90 19 4d 3d 6b 7e 00 bd
       0.040173016 0.05130457 0.050073206 -0.03137056
000110 79 e3 0e 3d 10 05 77 3d 9f 90 1a bd 50 3e 4e 3c
       0.034884904 0.060307562 -0.037735578 0.012588099
000120 b7 62 1d 3d 56 53 5a bd 39 97 0f 3d 13 49 65 3c
       0.03842422 -0.05330213 0.035056327 0.013994473
000130 d8 f4 8e 3d 16 59 6b bd a8 4e ba 3d ca c3 d2 3b
       0.06980294 -0.057458006 0.09097034 0.0064320313
000140 6e b5 a0 3d 78 7b 00 bd 78 98 8a bc 0e 35 c9 bc
       0.07847105 -0.03136775 -0.016918406 -0.024561431
000150 24 77 7e bd 44 95 f8 bc a4 1d 93 3d f2 6c 6b 3d
       -0.06212534 -0.030344613 0.07183388 0.057476945
000160 7c 5c 96 3d b3 5d c9 bc b2 92 9c bd 78 c8 ec 3b
       0.07341859 -0.024580812 -0.076451674 0.007226046
000170 2c bf 11 bd a7 6a 90 bc 69 46 1a 3c 80 26 7b 3a
       -0.035582706 -0.01762898 0.009416201 0.0009580627
000180 27 21 a7 3d ad f0 f1 bb 53 07 a8 bd 0a a8 a7 3d
       0.0816062 -0.007383427 -0.08204522 0.08186348
000190 7d d7 6f 3d 60 35 51 3c ac 36 85 bd 2a 95 b6 3d
       0.058555115 0.012769073 -0.065045685 0.089151695
0001a0 ac a7 74 3d 1b c8 be 3c b3 d2 9f bd 7f b7 56 3c
       0.059730217 0.023288777 -0.078038596 0.013105272
0001b0 48 ad 43 bc 1b cd 75 3d 30 ec 1a 3d 7c 49 80 3d
       -0.011943169 0.060010057 0.037822902 0.06264016
0001c0 bb b7 04 3d 99 be 3b 3d fb a3 0d 3d 8f 2c 77 bd
       0.03240178 0.045836065 0.034580212 -0.06034523
0001d0 54 45 9f bd f8 eb 63 bc 85 e8 2b bd ac 54 53 bd
       -0.07776895 -0.01391124 -0.041969795 -0.05159442
0001e0 20 01 6f bd c8 8a ac 3d 4d d0 6e bd 8f 06 70 3d
       -0.058350682 0.08424908 -0.05830412 0.058600005
0001f0 b4 70 96 3d 6e a3 5d bd 54 ec f1 bc 20 5a 66 bd
       0.07345715 -0.054110937 -0.029531635 -0.056238294
000200 9f a9 89 bd 44 ca f1 3c 90 cd 5a bd f9 e0 a0 bd
       -0.06721806 0.029515393 -0.053418696 -0.0785541
000210 e2 da d7 3c 0b b3 19 3b 95 5d 76 3d ad e9 a0 bd
       0.026349489 0.0023452665 0.06014784 -0.0785707
000220 81 cc 9c 3c c0 79 8b bd 91 7e 16 bd 29 85 c2 bd
       0.019140484 -0.06810331 -0.036741797 -0.094980545
000230 35 bb b4 3c d3 65 05 3d 9d c9 00 3d 4a a5 a7 3b
       0.022061924 0.03256781 0.031442273 0.0051161395
000240 fc f9 28 bd 0e 93 4f bb 26 a8 0f 3c 74 76 eb bc
       -0.04125403 -0.0031673345 0.008768117 -0.028743006
000250 01 c8 1d 3d 20 70 49 3d 1a 89 61 bd dc 99 81 bc
       0.038520817 0.049179196 -0.05506239 -0.015820436
000260 6b 33 9f bd ef 8b 86 3c 16 d8 bb 3c 8b a3 4b bd
       -0.07773479 0.016424147 0.022930186 -0.049716514
000270 b8 e9 ae bd 54 42 85 bd b8 2d 48 bd f9 97 77 bd
       -0.08540672 -0.06506792 -0.048871726 -0.060447667
000280 9e 6a 61 3c 17 e2 99 bd e6 27 9a bd 2f 04 b0 3c
       0.01375833 -0.07513826 -0.07527141 0.02148637
000290 1b 35 cf 3b b3 b9 20 3d 77 80 98 3d b2 0a b5 3d
       0.0063234693 0.039239597 0.07446378 0.088399306
0002a0 6a da ac bd a9 e5 28 3c f1 d9 54 bd fd 03 06 3b
       -0.08440097 0.0103086615 -0.051965658 0.0020449155
0002b0 7d 09 68 3b 4b ae 9a bc 37 fe 90 3d a3 72 3c 3d
       0.0035406046 -0.018881937 0.07079738 0.046007764
0002c0 f4 44 91 bd 61 01 45 3c 75 d8 17 bd de d0 ae bd
       -0.0709323 0.012024255 -0.037071664 -0.08535932
0002d0 ea f9 9e 3d 8d 6d 08 3d 42 ad 5e 3c 39 ab 9e bd
       0.07762511 0.0333076 0.013591113 -0.07747502
0002e0 93 be 8d bd 45 63 87 bb d6 ac 31 3d 5e b4 e6 bc
       -0.06921115 -0.004131707 0.04337772 -0.028162178
0002f0 16 1f 9d 3d 42 13 20 bd 14 f7 b7 bd e4 bd 81 3d
       0.07671945 -0.039080866 -0.08982673 0.06335047
000300 ea 09 9b bb 71 2a 66 bd 7d b0 8c 3b cf 03 78 3d
       -0.0047314065 -0.05619282 0.0042935 0.060550507
000310 89 5a ab 3d 4f af ec 3c 20 b3 66 3d 8e 19 a1 bd
       0.083668776 0.028892187 0.05632317 -0.07866202
000320 b8 a4 53 bc 6f bb 3b bc 3e 96 a0 bc ef 77 40 3d
       -0.01291769 -0.011458262 -0.019602891 0.046989378
000330 f3 e7 d4 3c 54 23 02 3d 4a a9 88 bd e4 02 06 bd
       0.025989508 0.031771973 -0.06672914 -0.0327176
000340 96 3b 3f bd 42 5a 3c bc 04 d3 6a 3c a2 52 a7 3d
       -0.046687685 -0.0114961285 0.014332537 0.08170058
000350 7f 1f c0 bc ee b7 a2 3d 7c 3b 1a 3d b7 39 b8 3c
       -0.023452519 0.07945238 0.037654385 0.022488458
000360 97 64 50 3c 9e b4 3f bd 84 33 21 3d 48 89 9a bd
       0.012719295 -0.04680311 0.03935577 -0.075457156
000370 9c c7 60 bc 3d f8 ba 3d 5b 17 9c bc 43 88 cc bc
       -0.013719466 0.09129379 -0.019054106 -0.024967318
000380 17 1d 84 bd dc cd ba 3c 9a e9 b0 bd b9 bf 81 bc
       -0.06450861 0.02280324 -0.08638306 -0.01583849
000390 e7 97 72 3c e9 e8 60 3d 3c 9a a6 bd b1 ed 25 3d
       0.014806724 0.05490962 -0.081348866 0.040509883
0003a0 7e 64 71 3c c8 1e 20 bd 6b fa 80 bd e0 2f 95 3d
       0.014733432 -0.039091855 -0.062977634 0.07284522
0003b0 7f cc 8f bd af b8 5e 3d c9 0a 30 3d 54 4d 89 bd
       -0.070214264 0.054375347 0.042979036 -0.06704202
0003c0 55 60 93 3d 57 d5 5b 3d 89 fd ab 3d 23 c3 c4 bc
       0.07196108 0.053670254 0.08397967 -0.02401883
0003d0 24 fb 82 bd 8a 0a 20 3c 5a c7 86 3d 24 e3 2e bd
       -0.063955575 0.009768138 0.06580992 -0.042697087
0003e0 ca 5b a5 bd 10 8a b3 bd a5 d3 f9 bb 5a fe ef bc
       -0.08074148 -0.08766568 -0.007624107 -0.029296089
0003f0 9e 8d a9 3a b0 4a 6b bc 39 30 3b bd 56 05 be bd
       0.0012935882 -0.014361069 -0.045700286 -0.092783615

sequential/conv1d/Conv1D f4 [16, 1, 3, 3]
000000 5c e5 95 be 21 a9 f2 3d 3c 11 a4 be 6c 04 e5 3d
       -0.2927655 0.11848665 -0.320444 0.11182484
000010 b4 e6 78 be 3e 4a 81 be 4c 66 9d 3c d4 62 49 be
       -0.24306756 -0.25251955 0.019213818 -0.19666606
000020 47 5c 2c bd 26 48 4d bd 55 f3 56 3e 28 27 4d be
       -0.04208019 -0.050117634 0.20991261 -0.20034468
000030 69 7d 91 be 5c 44 a6 3e dc f6 0f be fe ee 10 be
       -0.28415993 0.3247403 -0.14059013 -0.14153668
000040 a2 be c0 bd 3a 9f f3 bc bc e4 dc bd b6 35 64 be
       -0.0941136 -0.029739011 -0.10785815 -0.22286114
000050 f1 d8 1f be 3e dd a4 be 71 6f 28 3e 7d bf 97 3e
       -0.156101 -0.32200044 0.16448762 0.2963828
000060 16 0a 9b 3d b2 9e 1a 3e 7a 4b 05 be f7 7c 2d 3c
       0.07570283 0.150996 -0.13017073 0.010588876
000070 90 37 07 be de fb 44 be f0 40 32 be 24 c9 8c 3e
       -0.13204789 -0.19236705 -0.17407584 0.27497208
000080 c9 ae ad bd eb 48 df bd 1f a2 86 3d 7e 79 c6 bd
       -0.08480603 -0.1090258 0.06573891 -0.096911415
000090 6c d2 0a 3d 58 22 0b be 20 b9 16 be 66 b5 77 3e
       0.03389208 -0.1358732 -0.14719057 0.24190292
0000a0 53 23 84 be 4d 89 2f be 74 c1 5e be bf c4 9b be
       -0.258082 -0.1714222 -0.21753484 -0.30423543
0000b0 36 8f 98 3c 2e be 03 3e 1f 44 9d be ec 24 63 3e
       0.018622976 0.12865517 -0.30716035 0.22182053
0000c0 c3 ea b5 3d 72 d2 64 3e 39 d5 7f be 27 6c a0 be
       0.08882668 0.22345904 -0.24983682 -0.31332514
0000d0 1e 53 a9 be 5a 67 20 3e 2d b8 e3 3d dc de 0f 3b
       -0.33071226 0.15664425 0.11119113 0.0021952903
0000e0 f2 b4 a0 3e e3 82 64 be 13 f5 04 3e 06 cb b7 3d
       0.3138805 -0.22315554 0.12984113 0.089742705
0000f0 f8 db 8d bd 7a 7f 3b 3e 03 13 0a be f8 44 88 3d
       -0.06926721 0.18310347 -0.13483815 0.0665378
000100 e7 c1 92 be cc 83 90 3e e7 81 4e 3e 50 9e 76 be
       -0.2866356 0.28225553 0.20166741 -0.24083829
000110 e2 29 01 3e 61 2d 6e be e2 2b fc 3d 74 69 6b 3c
       0.12613633 -0.23259498 0.123130575 0.014368404
000120 f0 d7 8d be 3e 48 b9 bd 42 ad 61 3e c7 ae f1 bd
       -0.2770381 -0.09046982 0.22038749 -0.11800914
000130 c3 21 32 bc 82 43 14 3e 1a a6 72 be ce 8c 0b bd
       -0.010872307 0.14478877 -0.23696175 -0.03406983
000140 98 a5 62 3e 05 60 17 3d e9 fb 95 be c8 b2 9a 3e
       0.22133482 0.036956806 -0.29293755 0.30214524
000150 54 43 c4 3c 26 30 54 3e b8 29 e8 bd 45 7e 7b bd
       0.023957886 0.20721492 -0.11336082 -0.061399717
000160 05 8a 69 3e 0c f0 21 be b7 4b 19 3e 3a 33 72 bd
       0.22806557 -0.15814227 0.14970289 -0.059130885
000170 28 18 8b 3e 77 36 48 3e 28 b2 9d 3e a6 90 3c bc
       0.27166867 0.19552027 0.30799985 -0.011509096
000180 7c 02 5f 3e 43 a7 15 be e4 71 a1 bd e8 1b 8e 3d
       0.21778291 -0.14614587 -0.07883051 0.069389164
000190 b3 28 8b 3e e1 5e 8c 3d 56 23 4e be 6d 32 d4 3d
       0.2717949 0.06854034 -0.20130667 0.103611805
0001a0 d5 35 19 3e dd 4c d9 bd 17 5e 08 be 3f 87 20 3e
       0.14961942 -0.10610364 -0.13317142 0.15676592
0001b0 80 fc c1 3d fd ff 51 3e 70 69 a3 3e cd 1d 97 3e
       0.09471989 0.20507808 0.3191638 0.29514924
0001c0 88 f7 c9 bd b5 d4 6d 3e 9b 83 00 be fe 8f 77 be
       -0.09861666 0.23225673 -0.12550204 -0.24176022
0001d0 a1 92 5a 3d 0a 42 8b be 24 68 91 be 48 69 8f 3d
       0.053362492 -0.2719882 -0.28399765 0.07002503
0001e0 e3 9e 92 3e 0e 42 a6 be 67 af 5f be 5b b6 95 3e
       0.28636846 -0.3247227 -0.21844254 0.2924069
0001f0 c7 65 73 3e 71 b7 a3 3d ba 3a 3e 3e 92 3f b4 3b
       0.23769294 0.07993973 0.1857709 0.0055007422
000200 55 3e 3d be 8b 27 a6 3e d5 c0 4a 3e bd ef 3d 3e
       -0.18480809 0.32452044 0.19800122 0.18548484
000210 10 62 73 3e a3 63 46 3e 8e b5 11 3e 44 80 d2 3d
       0.23767877 0.19373946 0.14229414 0.10278371
000220 15 a0 26 3c 72 6c 36 3c 38 b1 58 be a1 08 54 be
       0.0101700025 0.011134254 -0.21161354 -0.20706417
000230 a1 b5 92 be 0e 83 33 bd e8 69 6d 3e ef 53 74 3d
       -0.28654197 -0.043826155 0.23184931 0.059650358

sequential/conv1d_1/Conv1D f4 [32, 1, 3, 16]
000000 ec e4 e6 3d d8 dc a3 bc 77 8c 4c 3e 1e 76 9d bc
       0.11274132 -0.020002767 0.19975458 -0.019221362
000010 fe 2c ad bd e8 55 a6 bd c3 fe 81 bc d8 e1 2a be
       -0.08455847 -0.08121854 -0.01586855 -0.16687715
000020 51 0d 06 3e 05 54 9b bd 50 c8 d4 3d 54 33 1f 3d
       0.13091017 -0.07584385 0.10389769 0.03886731
000030 94 c1 96 3c ff 04 20 be 45 1e a6 bd 53 66 05 bd
       0.018402852 -0.15626906 -0.08111242 -0.032568287
000040 0e 16 2c 3e 93 9e 06 bc 07 e4 ab bd af 64 36 3e
       0.16805288 -0.008216518 -0.08393102 0.17811845
000050 19 8c d0 bd 7e 8f 14 be 82 cb a3 bd ff 9d ce bb
       -0.101829715 -0.14507863 -0.079978004 -0.0063054557
000060 39 69 23 3e 8f 82 24 3e 4c 2b a0 bd 7b f7 2d 3d
       0.15958108 0.16065429 -0.07820758 0.042472344
000070 7d 6c b0 3a 10 5e 3e bc 30 8a 01 3e 7a ce 9b bd
       0.0013460066 -0.011619106 0.1265037 -0.07607742
000080 fe 00 52 be 10 75 d8 bd 82 49 4c 3e 75 4a 0f be
       -0.20508191 -0.10569203 0.19949916 -0.13993247
000090 c6 ac ca bd bd c9 5e bc 02 fe 1f bd a7 63 99 bc
       -0.09896235 -0.013597903 -0.0390606 -0.018724276
0000a0 97 9e 5e 3e ba 4e 13 be 2c 4f ae 3d 2b 4f a2 bd
       0.21740185 -0.143855 0.085111946 -0.07925256
0000b0 89 58 50 be 50 8c 0e be 39 33 f4 bc 94 7c 3a 3e
       -0.20346273 -0.13920712 -0.029809581 0.18211585
0000c0 b1 09 1d be e9 2e 08 3e 3b db e1 bd 7c ed 1a be
       -0.15335728 0.13299145 -0.11028143 -0.15129656
0000d0 ca 4c f6 bd 66 7f ac 3d 78 d5 da 3d 24 8e 3d be
       -0.12026365 0.08422737 0.10685247 -0.18511254
0000e0 fc 43 19 3c 8d 43 1c bc a6 f1 6b 3c d7 e5 1e 3d
       0.009354588 -0.00953759 0.014400875 0.03879341
0000f0 61 51 cf 3d e0 f0 ce 3c 41 ff 14 3e cc 9f 11 bc
       0.10122944 0.025261343 0.14550497 -0.008888196
000100 f5 16 b4 bd fd 3c d6 bd 54 da 83 3d a7 7b 1a 3e
       -0.08793441 -0.10460851 0.06438127 0.15086232
000110 61 03 3a be e2 0c 8f 3d 0e dd 34 be 31 44 42 3c
       -0.18165351 0.06984879 -0.1766245 0.011857078
000120 98 c3 91 bc 0e cd 0f 3e e0 2d 47 bb 12 21 35 3e
       -0.017793462 0.14043066 -0.0030392334 0.17688397
000130 14 39 51 3c ca 2c 38 be 46 1d 16 3d 64 12 3e be
       0.012769956 -0.17985836 0.03664901 -0.18561703
000140 75 0a b4 bd b3 97 25 be d4 36 40 3e 7f a1 df bd
       -0.08791057 -0.1617115 0.18770915 -0.10919475
000150 48 8d 2a 3e 08 a6 07 3e 36 1c 30 be 2a af 4c be
       0.16655457 0.1324693 -0.17198262 -0.19988695
000160 b4 dc 43 3d fc 98 ae bb 28 3c c9 3c 3f 59 ea bd
       0.0478179 -0.0053282958 0.024564818 -0.114428036
000170 9a c2 2f bc bf b7 f9 bd a1 02 d8 bd ea 82 f4 bd
       -0.010727549 -0.1219325 -0.105473764 -0.119390324
000180 39 20 04 3e b3 c1 b4 bc d5 66 ce 3d f4 90 cd 3d
       0.12902917 -0.02206502 0.100782074 0.10037413
000190 16 04 ce 3d 10 f5 5a 3c c3 f5 35 3e 51 eb 8f 3d
       0.10059373 0.0133640915 0.17769532 0.07027305
0001a0 29 bb af 3d e7 a9 bc bd b3 54 10 3e 35 d1 4f 3e
       0.0858062 -0.09212094 0.1409481 0.2029465
0001b0 9d 12 93 bd 5f a4 a9 3b 71 bd a3 3d bb 0d 00 be
       -0.071812846 0.0051770653 0.079951175 -0.12505238
0001c0 62 bb 27 3e 54 98 e4 bd 1f ee 51 3c 4f 61 2a be
       0.16380075 -0.11161867 0.01281312 -0.16638683
0001d0 b2 91 43 3e af 9a ac bd d8 ab b1 3d ca 7e 5f bd
       0.19098547 -0.08427941 0.08675355 -0.054564275
0001e0 5c f7 7c 3d 6b 09 99 bc 0a 57 18 3e 0a f4 c9 3d
       0.061759338 -0.018681249 0.14876953 0.09861
0001f0 42 61 4d 3e 51 18 37 3e 67 06 11 3e e0 15 31 be
       0.20056632 0.1788037 0.14162599 -0.17293501
000200 65 98 18 be fc b0 f1 3d 12 77 d8 bd d5 8b b6 bc
       -0.14901884 0.11801335 -0.10569586 -0.022283474
000210 d6 59 b5 bc fd 3e 97 bd d2 c4 1f 3d 2f 4c 14 be
       -0.022137564 -0.07385061 0.03900606 -0.14482187
000220 ef bd 6b 3b 73 ad 21 bd 28 d8 41 3e 59 b3 14 3d
       0.0035971364 -0.039472055 0.18930113 0.03630385
000230 2f 50 0a be 69 80 82 bc f1 9f c1 3b ee 88 22 be
       -0.1350715 -0.015930371 0.005908959 -0.15872547
000240 18 bf 10 be af d9 24 3e f2 b0 d1 bd 7d 48 d1 bd
       -0.14135396 0.16098665 -0.10238828 -0.10218904
000250 6e e9 31 be cd 44 68 3c bd 22 82 bd 19 dc d6 bd
       -0.17374203 0.01417656 -0.06354282 -0.10491199
000260 52 39 ff bd 0f 2b 55 bd f1 b3 26 3c 69 e8 f1 3d
       -0.12462105 -0.052043017 0.010174737 0.11811907
000270 b3 df 1c 3e 0d c4 ae bd 7f bf 19 3e 03 04 3d be
       0.1531971 -0.085334875 0.15014456 -0.18458562
000280 ad 78 8f bd 6a 49 84 3d b5 90 5d bd 15 af 76 3c
       -0.07005439 0.06459315 -0.05409308 0.015056391
000290 07 0b f5 3d 29 e5 fc bd 67 89 98 3d 31 2a 01 3e
       0.11964994 -0.12348396 0.074480824 0.12613751
0002a0 a3 5a 75 3d c5 b2 45 be 91 52 e3 3d f2 ea 27 3e
       0.05990089 -0.19306476 0.11099733 0.16398218
0002b0 c5 82 31 be aa 71 21 be cd 37 0c bd 89 53 61 3d
       -0.17335041 -0.15766016 -0.034232903 0.055011306
0002c0 e5 1a 01 be 1d 5c dd bd 64 2c 97 bd aa 0e 69 3d
       -0.12607916 -0.10808585 -0.07381514 0.05689875
0002d0 3c 54 c9 3d a9 1f 1d be 73 9c 01 be b3 0c fd bd
       0.098305196 -0.15344109 -0.12657337 -0.12355938
0002e0 2b 05 36 bd 9b af 46 be 1a 0e c3 3d 72 88 1a 3e
       -0.044438522 -0.19402926 0.09524174 0.15091112
0002f0 9b c1 78 3c a9 42 12 3d c7 97 27 bd 5d 50 98 3d
       0.015182878 0.035708103 -0.04091623 0.07437203
000300 50 6f 40 be 02 9c 44 be 79 69 59 be db d5 b2 3d
       -0.18792462 -0.19200137 -0.21231641 0.08732196
000310 4e ee 59 3e cd 96 47 be bb 73 f2 3c ec f7 44 be
       0.21282312 -0.1949112 0.0295962 -0.192352
000320 1d 5c ee bd eb c5 50 be cc 8f ec 3c 02 57 c6 3d
       -0.11638663 -0.20388 0.028877161 0.09684564
000330 43 e8 18 3e c7 09 32 3e d0 24 74 3d 1b 69 c3 3c
       0.14932351 0.17386542 0.05960542 0.02385383
000340 8c 3c 25 3e fc a8 70 bc ab 56 ba 3d e2 98 b3 3c
       0.16136378 -0.0146887265 0.09098562 0.021923486
000350 38 92 c4 bc 00 77 65 3c 71 7c 31 be da 91 0f be
       -0.023995504 0.014005423 -0.17332627 -0.14020482
000360 a2 70 e4 bd 54 5e e4 3d 8a b2 59 3d 5a 27 b0 bc
       -0.111542955 0.11150804 0.053148784 -0.02150314
000370 13 75 4d 3d 4a 65 74 bc 58 77 fa bd 28 a0 1a be
       0.05016048 -0.014916727 -0.12229794 -0.15100157
000380 3b 52 1b be 59 cf cf bc f6 4e 2e be 97 19 2f 3e
       -0.15168087 -0.025367426 -0.17022309 0.17099606
000390 e8 1e cd 3d 98 77 9b 3d d6 8f 32 3e 7d df 8e 3d
       0.100156605 0.0759117 0.17437682 0.06976221
0003a0 67 bc 11 be 66 c9 4c be bc 84 aa 3d 9c 52 12 3e
       -0.14232026 -0.19998702 0.08326098 0.14289325
0003b0 6f 98 c9 bc 58 bc 01 3e a6 1f 47 3e da 24 03 3e
       -0.024608819 0.12669504 0.19445667 0.12807027
0003c0 df 1c 8a bc bf 8e ee bd f0 d1 2c bc 85 bc 0a be
       -0.01685947 -0.116483204 -0.0105481 -0.13548477
0003d0 7d 19 11 3e 4e 67 bf 3d 81 41 19 bd c1 2f b3 bd
       0.1416988 0.09345876 -0.037415985 -0.08749343
0003e0 5f 09 ab ba 47 b9 5d 3e a0 e5 ba 3c 20 88 f6 3d
       -0.0013049057 0.21652709 0.022814572 0.120376825
0003f0 a7 e1 14 3c d3 b8 07 be 13 ba 24 3e 91 80 17 be
       0.009087003 -0.13254099 0.16086607 -0.14795138

sequential/conv1d_2/Conv1D f4 [64, 1, 3, 32]
000000 7e 77 1a bc cd 8f 9b 3d 8d a0 d4 3d 41 f8 3e bd
       -0.009427903 0.07595787 0.10382185 -0.046623472
000010 92 a8 2f 3d 1d d9 0e be 2d d3 10 3e 84 e0 cd bd
       0.04288537 -0.1395001 0.14143057 -0.100525886
000020 35 a0 f1 bb 2c ff 9a 3c 08 ed 1e bd 6c 44 67 3d
       -0.0073738345 0.018920504 -0.03880027 0.056461737
000030 74 66 30 bd 90 73 fa bd 7f 26 b1 bd 25 05 e9 3b
       -0.043066457 -0.12229073 -0.08649921 0.007111209
000040 27 ba ce bd 3f 21 ee 3c 6a f0 12 3e 93 39 4e 3d
       -0.100940995 0.029068587 0.14349523 0.050347876
000050 c0 44 ca bd 5f b5 ac bd 87 91 97 3c a7 f8 6a 3d
       -0.09876394 -0.08433031 0.01850201 0.05736604
000060 fd 0b c1 3d ee 3b 25 bd 25 b1 c7 bd 46 26 74 3d
       0.09426115 -0.040340357 -0.097505845 0.059606813
000070 56 8b 33 3d ad 5b 89 3d 05 26 5f 3b 76 ea f1 bd
       0.043834053 0.06706939 0.003404976 -0.11812298
000080 27 bf 06 be 26 e6 e8 bd 7d fd aa 3d 45 0e 9d bc
       -0.13158856 -0.11372022 0.0834913 -0.019171843
000090 74 cb 1a bb 8e de fe 3d de 71 be bd dd 2f ae 3c
       -0.0023619803 0.12444793 -0.09299062 0.021263057
0000a0 fb 17 8f bd 22 49 00 bd cb 08 1c 3c e6 df 14 be
       -0.06986996 -0.031319745 0.009523581 -0.14538535
0000b0 ec 06 56 bb e1 37 21 3d bd 5e 2a bc d5 79 54 bd
       -0.0032657934 0.03935993 -0.010398564 -0.051874
0000c0 86 b7 bc 3d b2 ff af bd 51 fc ce 3c 42 d6 c6 3c
       0.09214692 -0.08593692 0.025266798 0.024272088
0000d0 44 0d e8 3b 0a 52 0c be 8c ac ff bc db 86 f2 bd
       0.0070816595 -0.1370317 -0.031210206 -0.11842128
0000e0 78 b0 0c bd 8c 43 6a bd 11 e5 6b bd 25 db a3 3b
       -0.03434798 -0.057193324 -0.0575915 0.0050004893
0000f0 18 c8 9a 3d 1c 0c 69 bd 8a 79 73 bb 79 d6 12 be
       0.07557696 -0.056896314 -0.00371513 -0.14339627
000100 f0 f9 07 be 4e 74 c6 bc 0f 76 2e bd eb 67 75 3b
       -0.13278937 -0.02422538 -0.04259306 0.0037445973
000110 e7 d0 03 3e d9 b0 01 be f4 4d 0a be 9e fa 58 bd
       0.12872659 -0.12665118 -0.135063 -0.052973382
000120 d0 88 5c 3d b4 95 16 bc c2 12 88 bd 0a e6 e2 bc
       0.053841412 -0.009190965 -0.06644203 -0.027697582
000130 d5 a3 3c bd 65 2d d5 3d b1 02 59 3d eb 63 de 3c
       -0.04605468 0.10409049 0.052981082 0.027147254
000140 e4 c2 07 be 81 ed a4 bd ec d0 99 3d b2 e2 a2 3d
       -0.13257939 -0.08053113 0.07510552 0.07953395
000150 bd 20 fb bd 2a a2 8e bc fd e6 58 3d f4 bb 8d 3d
       -0.12262104 -0.01741131 0.052954663 0.06920615
000160 bc 95 d0 3d 36 29 94 3d 97 59 f0 bd 0e e7 5e bd
       0.101848096 0.07234423 -0.11735838 -0.05441957
000170 5b 19 03 3e 8d f8 91 bd 21 62 35 3c b8 aa a4 bd
       0.12802641 -0.071274854 0.011070759 -0.080403745
000180 3e 42 17 be d3 e5 27 3d 64 f1 07 be 48 01 13 3d
       -0.14771363 0.04099066 -0.13275677 0.035889894
000190 26 4e 68 bd e9 6e 69 3c 5c e1 0b be 0c c1 55 bc
       -0.056715153 0.014247634 -0.13660187 -0.013046514
0001a0 b3 0c 51 3d ae 8b 08 be 90 f2 f3 3d e5 93 ac bc
       0.0510375 -0.13334534 0.119114995 -0.021066615
0001b0 e7 d3 c6 3c c2 84 fd 3d 95 8c f3 bd 02 ed 86 bd
       0.024270965 0.12378837 -0.11892048 -0.065881744
0001c0 c9 60 a7 3d 2a 71 bc bd 06 45 f1 bd 91 27 09 3d
       0.08172757 -0.09201272 -0.11780743 0.033485
0001d0 1d 37 0f be d9 b4 2d 3d df 55 a6 3d 32 b7 6b bd
       -0.13985868 0.042408798 0.08121847 -0.057547756
0001e0 09 54 9c 3d 7a 51 bf 3d 88 04 8a bd 43 ee ec bd
       0.07633216 0.09341712 -0.067391455 -0.11568882
0001f0 32 1f 0f be 2c b7 ad bd 94 cc 49 3d ce 11 85 3c
       -0.13976744 -0.08482203 0.049267367 0.016243841
000200 49 04 ea bd 7a 40 20 bd f6 40 b2 3d c2 25 ae 3c
       -0.114265986 -0.03912399 0.087037966 0.021258239
000210 e9 07 08 be 19 27 9c bd 3c 75 76 bd 57 0d b3 bd
       -0.13284267 -0.07624645 -0.060170397 -0.08742779
000220 12 ab 90 bd 01 b5 40 bd 29 be c5 3d 4c 9e 0b bd
       -0.07063879 -0.04704762 0.09655411 -0.03408651
000230 e0 86 f4 bd b8 00 9d bb 25 3e e4 3d 58 00 cc bd
       -0.11939788 -0.0047913454 0.11144666 -0.09961003
000240 03 6d ac bd e1 2a b8 bc 28 dc 85 bd b5 63 ab 3d
       -0.0841923 -0.022481384 -0.06536132 0.08368627
000250 93 28 b1 3d 9f 0c b9 bd ef c7 05 be a4 21 4e 3c
       0.08650317 -0.090356104 -0.1306455 0.012581263
000260 c2 61 e2 bd cb 15 f1 3d 8b 10 19 3d b8 23 63 bd
       -0.11053802 0.11771735 0.037369292 -0.055453986
000270 55 34 25 3d 20 ec 30 bc 59 8c 99 bd 8f d7 00 bd
       0.04033311 -0.010798484 -0.07497472 -0.031455573
000280 84 a3 f7 3c 46 19 6e bc 4b 7c 44 bd 50 9d d8 bd
       0.030229338 -0.014532393 -0.047970098 -0.1057688
000290 5c c1 be bd 87 b4 ff bd 2b 18 67 3d 18 e5 81 bc
       -0.09314224 -0.12485605 0.056419533 -0.01585631
0002a0 3a 2d 55 bc d2 ba 34 3d b1 f1 dd 3d e5 79 7c bc
       -0.013011271 0.04412348 0.108371146 -0.015409921
0002b0 41 d4 9a 3d b4 ae 8e 3d 44 33 8b 3d 1f 61 aa 3d
       0.075600155 0.06966916 0.067968875 0.08319306
0002c0 a2 e5 aa bd ca 68 b8 3d 52 01 6b 3d cb 57 fe 3d
       -0.0834458 0.09004362 0.057374306 0.12419089
0002d0 4f ec 15 3d e4 08 6a bd 17 48 07 3e 28 67 b5 3d
       0.036602315 -0.057137385 0.13211094 0.08857566
0002e0 25 e7 88 bd 65 6d d8 bd 63 b0 41 bc 79 fe d9 bd
       -0.06684712 -0.1056774 -0.011821839 -0.1064424
0002f0 9c d2 90 3d 9a 91 b6 3d 50 1e ac bd 36 cb 13 be
       0.070714206 0.0891449 -0.08404219 -0.14432988
000300 b8 0b 5c bd 0a 97 f6 bd 5e 2b 02 bd 6a dc bf bd
       -0.053722113 -0.12040527 -0.03177964 -0.093682125
000310 3f 6d a6 bd 09 a7 02 3e 65 f5 9a 3d fe 45 70 bd
       -0.08126306 0.12759031 0.075663365 -0.0586605
000320 55 e4 98 3d 88 14 62 bd 8b 8e 41 3c 76 35 09 3e
       0.07465426 -0.05519536 0.01181377 0.133993
000330 01 d4 05 be a4 1e f8 3c 41 6a 7f 3d 90 06 c3 bd
       -0.13069154 0.030288048 0.06235719 -0.09522736
000340 3b db 99 bd bd d8 96 bb 19 2c a8 3d b6 50 0e 3e
       -0.07512518 -0.004603474 0.08211536 0.13897976
000350 9d 20 a6 bd 90 e8 e4 bd 0e 7d 6d bd 04 3e bb 3d
       -0.08111689 -0.1117717 -0.05798059 0.09142688
000360 f6 a0 f7 3c 33 4c ef 3d b6 64 03 be ed c3 0e 3d
       0.03022812 0.11684456 -0.12831387 0.034854818
000370 aa 13 31 3d 3a 88 ae bd 1f 1d 8c bd 37 a0 de bc
       0.043231644 -0.08522077 -0.06841492 -0.027176006
000380 eb 1e 7a bd 23 f9 44 bd d9 f8 c4 bd cb 59 23 bd
       -0.061064642 -0.048089158 -0.096177764 -0.039880555
000390 15 1a 82 bd 01 6a be bc b9 d1 04 3d 0c 80 97 3d
       -0.06352631 -0.023243906 0.03242657 0.0739747
0003a0 10 4b 1c 3d b2 50 93 3c 39 a9 18 bd a4 89 a3 bd
       0.038157523 0.017982814 -0.03727076 -0.07985237
0003b0 45 b6 eb bd bf b5 f6 3c 4e d5 88 bc ef 93 87 3c
       -0.115093745 0.03011596 -0.016703274 0.016550032
0003c0 60 9b 4e bd 84 28 a9 3b f8 f9 b5 bd 6e 92 51 bb
       -0.050441146 0.0051623005 -0.088855684 -0.0031978148
0003d0 dd 6f 88 bd 1f d3 8e bd 54 a1 10 3e 11 f0 8e bd
       -0.06661961 -0.06973862 0.14124042 -0.06979383
0003e0 3c 3b b7 3c 37 c6 ce 3d af 15 96 bd 5c 94 70 bd
       0.022367112 0.100964 -0.073283546 -0.058735237
0003f0 90 b1 1b 3c 11 54 d9 bd 47 35 bc bd fd d0 bc 3c
       0.009502783 -0.106117375 -0.09189849 0.023048872
